My-RL/Good Models/custom_ppo.pt (torch, 346857 bytes, 7 tensors)

shared.0.weight f4 [256, 60]
0	0xbdcac479	-0.099007554
1	0x3d72b639	0.059255812
2	0xbd947a7d	-0.07249925
3	0xbc5c9faf	-0.013465806
4	0xbd01aeb7	-0.03166076
5	0xbdc0ffb6	-0.09423773
6	0x3e407bc2	0.1879721
7	0x3d5c608a	0.053803004
8	0xbdb59e72	-0.08868112
9	0x3d701622	0.058614857
10	0x3d05e435	0.03268834
11	0xbd1ddf6a	-0.038543142
12	0xbe327304	-0.17426687
13	0x3d4b40df	0.049622413
14	0x3dffba22	0.12486674
15	0xbdaac839	-0.08338971
16	0x3dba355f	0.09092211
17	0x3cccca1e	0.02499872
18	0x3e1dfee3	0.15429263
19	0x3e3d1df6	0.1846846
20	0x3db74885	0.08949379
21	0xbd8d56b4	-0.06901303
22	0xbdc52542	-0.09626247
23	0x3da09d60	0.07842517
24	0x3da639d7	0.08116501
25	0x3d9ea6f6	0.07746689
26	0x3ca859a3	0.020550555
27	0x3ce27d69	0.02764769
28	0x3dbb0407	0.091316275
29	0x3d65826c	0.056032583
30	0xbd85ca59	-0.065327354
31	0x3d54c855	0.051948864
32	0xbdfa8b71	-0.122336276
33	0xbd922d36	-0.071375296
34	0xbc619eab	-0.01377074
35	0xbd033d82	-0.03204108
36	0xbd8c8edf	-0.06863188
37	0x3d994a14	0.074848324
38	0xbdd4db89	-0.103934355
39	0x3e06a44f	0.13148616
40	0xbd82fa9a	-0.06395455
41	0x3c8855c8	0.016642466
42	0x3d981b6c	0.07427105
43	0x3e02fd39	0.1279191
44	0x3d1c6695	0.038183767
45	0xbcc0689c	-0.023487382
46	0xbdfdfb62	-0.12401463
47	0x3dcecee2	0.100980535
48	0x3dea99b4	0.11455098
49	0xbc2313e1	-0.00995347
50	0xbddf357f	-0.108988754
51	0xbdc6173c	-0.096724
52	0x3da694d6	0.08133857
53	0xbcf821bd	-0.030289525
54	0xbcea3254	-0.028588451
55	0xbdf7f3e5	-0.12107066
56	0xbd31da77	-0.043421235
57	0x3e958dc9	0.29209736
58	0x3dce361a	0.10068913
59	0x3de0d136	0.10977404
60	0x3dd8897b	0.10573097
61	0x3de538c7	0.1119247
62	0xbd2c182c	-0.04201524
63	0xbda1ca38	-0.07899898
64	0x3df2ad0a	0.11849411
65	0x3c95c152	0.018280659
66	0x3d9a3544	0.07529691
67	0xbd699b6a	-0.05703298
68	0x3dfbe2c0	0.122991085
69	0xbdc3d245	-0.0956159
70	0x3d8aedee	0.06783663
71	0xbdf56431	-0.119820006
72	0x3ce38483	0.027773147
73	0x3dd183b8	0.102302015
74	0x3d35c7db	0.04438005
75	0xbcbc6219	-0.022995995
76	0xbdbb6798	-0.09150618
77	0x3e2add33	0.16685943
78	0x3daeaf82	0.08529569
79	0x3d0ab4e3	0.033863913
80	0x3d761c25	0.060085434
81	0x3df3af40	0.11898661
82	0x3d639505	0.055562038
83	0x3c260bd8	0.01013466
84	0x3dac624d	0.08417187
85	0x3df824b1	0.12116373
86	0xbd3a8972	-0.045541234
87	0x3cdbc33d	0.026826495
88	0x3d06175a	0.032737114
89	0xbda5f1ae	-0.08102737
90	0xbcc2dd7e	-0.023787256
91	0xbcdbd017	-0.026832623
92	0x3d7d82ed	0.06189244
93	0xbd09a8bf	-0.033608194
94	0xbdda9f3b	-0.10674902
95	0x3db5d64d	0.08878765
96	0x3c155eef	0.009116872
97	0xbd7825e8	-0.060583025
98	0xbd6e3175	-0.058152635
99	0x3dee5b39	0.11638493
100	0x3c14e15e	0.009086935
101	0xbda166e9	-0.07880957
102	0xbdbdd60f	-0.09269344
103	0xbdab040d	-0.08350382
104	0xbdb11e49	-0.086483546
105	0xbd4e7709	-0.05040649
106	0x3ab18d7b	0.0013546193
107	0xbdc23052	-0.094818726
108	0xbd0f0f8f	-0.034926947
109	0x3dc78269	0.09741671
110	0x3d3e674d	0.046485234
111	0xbd774217	-0.060365763
112	0x3bfc52dc	0.0077003073
113	0xbc36da0b	-0.011160384
114	0x3d8f128a	0.06985958
115	0xbdeec40f	-0.11658489
116	0xbde7f1e3	-0.11325433
117	0xbe4a9c32	-0.19786146
118	0x3db220c4	0.08697656
119	0xbd01f217	-0.031725015
120	0x3de6694b	0.11250552
121	0x3e08388d	0.13302822
122	0xbe01f954	-0.12692767
123	0xbd44f21d	-0.04808246
124	0xbdd356c3	-0.10319283
125	0x3dd9b02b	0.106293045
126	0xbdf78059	-0.12085027
127	0x3d288069	0.041138086
128	0x3def369c	0.11680338
129	0x3dba5e9e	0.09100078
130	0xbd0ab478	-0.033863515
131	0xbd5224be	-0.05130457
132	0x3df4f335	0.119604506
133	0xbcde4d37	-0.027136428
134	0x3caf32f8	0.021386608
135	0x3d823c27	0.063591294
136	0x3db92904	0.09041026
137	0x3d80056f	0.062510364
138	0x3d1ef17a	0.03880451
139	0xbe0f373c	-0.13985914
140	0x3dfe6949	0.12422425
141	0x3b56ba27	0.0032764764
142	0x3e1158b2	0.14193991
143	0x3e049f6a	0.12951437
144	0x3d8b3953	0.06798043
145	0x3d7d61af	0.061860736
146	0xbdce32a6	-0.10068254
147	0xbdc7d03c	-0.097565144
148	0x3e0c2bbf	0.13688563
149	0x3cd95574	0.026530005
150	0xbdcfa167	-0.10138207
151	0x3dec585c	0.11540291
152	0xbcfbc3ca	-0.030733008
153	0xbe085bac	-0.1331622
154	0x3d9ba9b5	0.076007284
155	0x3de0de57	0.10979908
156	0xbd83f515	-0.0644323
157	0xbdda89c8	-0.10670811
158	0xbc8988b7	-0.016788824
159	0xbd56d5b0	-0.052449882
160	0xbd0b413d	-0.033997763
161	0x3d86d97e	0.06584452
162	0xbe334379	-0.17506208
163	0xbdbef797	-0.09324568
164	0xbca0e669	-0.019641118
165	0xbca4e3b1	-0.020128103
166	0x3d7bfbc3	0.061519396
167	0xbd1ba1dd	-0.03799616
168	0x3dc019b7	0.09379905
169	0x3c9c7a93	0.019101417
170	0x3e07b0a5	0.13250978
171	0x3c70dca8	0.014701046
172	0x3db9edde	0.09078573
173	0x3ccbd4ae	0.024881687
174	0xbc1615ae	-0.009160442
175	0x3cf69018	0.030098006
176	0xbd2bdc41	-0.041958097
177	0xbeb3b05e	-0.35095495
178	0xbbf65313	-0.0075172274
179	0xbdd08acd	-0.10182724
180	0x3dc0e758	0.09419125
181	0xbd8d10ff	-0.068880074
182	0x3dd63509	0.104593344
183	0xbd3c48b9	-0.04596779
184	0xbc0798c4	-0.008276168
185	0xbd89eda0	-0.067347765
186	0xbdfeb020	-0.12435937
187	0x3d09df80	0.03366041
188	0x3dc80780	0.097670555
189	0x3b990e1f	0.004670873
190	0xbd98a43f	-0.074532025
191	0x3d000e7a	0.031263806
192	0xbd94db7d	-0.072684266
193	0x3d0dc0af	0.034607586
194	0xbce8258a	-0.028338213
195	0x3d1e2ea3	0.038618695
196	0xbd80c04a	-0.06286676
197	0xbe852f3d	-0.26012602
198	0xbca3979d	-0.019969756
199	0x3db082d2	0.08618702
200	0xbb9c08ab	-0.0047617755
201	0x3d2c9687	0.04213574
202	0xbdf304a1	-0.11866117
203	0x3d8cb73d	0.068708874
204	0xbdbd3131	-0.09237898
205	0xbd98ec3d	-0.07466934
206	0x3d76739b	0.060168844
207	0x3daaaaec	0.08333382
208	0x3c166fea	0.009181956
209	0xbdd6921d	-0.10477088
210	0x3da1352c	0.0787147
211	0xbe1fd2c9	-0.15607752
212	0xbddce4dd	-0.1078584
213	0x3db12fdd	0.08651707
214	0xbd0888fd	-0.033333767
215	0xbdab59a4	-0.08366707
216	0xbdf9e89b	-0.12202569
217	0xbd88b50a	-0.066751555
218	0xbdd1048f	-0.102059476
219	0xbceb2634	-0.02870474
220	0xbe01422b	-0.12622897
221	0xbdf96a5c	-0.121784896
222	0x3d523af4	0.051325753
223	0x3db8d398	0.09024733
224	0x3d6b1d8c	0.057401225
225	0x3d85fb35	0.065420546
226	0x3ddc378e	0.10752784
227	0x3e04d3e1	0.1297145
228	0x3d8bd3fd	0.06827543
229	0x3dfdc38d	0.12390814
230	0xbd7f35fe	-0.06230735
231	0xbd9d7a1e	-0.07689308
232	0xbda681a4	-0.08130196
233	0xbd3543a9	-0.04425398
234	0xbdb72bd0	-0.089439034
235	0xbdbb17b2	-0.09135379
236	0x3ddb46a7	0.10706835
237	0x3ed231ac	0.41053522
238	0x3d8201c9	0.06347997
239	0x3dc39f78	0.095519006
240	0xbe09627a	-0.13416472
241	0xbe0eaa81	-0.1393223
242	0x3e140f4c	0.1445896
243	0x3d4b90a1	0.049698476
244	0xbc786a53	-0.015162068
245	0xbbe51ba3	-0.00699182
246	0x3cb13eb9	0.021636354
247	0xbc8c738b	-0.017144939
248	0xbce1ca0f	-0.02756217
249	0x3dbfaf60	0.09359622
250	0x3d34b0cc	0.04411392
251	0x3d91e29f	0.07123303
252	0xbdd1a5ae	-0.10236679
253	0x3d7864a2	0.060642846
254	0xbda5d1c9	-0.08096654
255	0xbe05670c	-0.1302759

shared.0.bias f4 [256]
0	0x3d80868f	0.06275665
1	0x3e0ba854	0.13638431
2	0x3d3637bf	0.044486757
3	0x3db6c56a	0.089243725
4	0x3db1dfc0	0.08685255
5	0x3dd9f94b	0.10643252
6	0xbd9c7fdd	-0.076415755
7	0x3cb451ca	0.022011656
8	0xbdbe7b28	-0.09300834
9	0xbdaac1bc	-0.08337733
10	0xbd51ce55	-0.051222164
11	0x3da9da58	0.08293599
12	0x3d2be795	0.0419689
13	0xbdb17710	-0.086652875
14	0xbdcf0de9	-0.10110075
15	0x3da68e4a	0.08132608
16	0xbd8cacf4	-0.06868926
17	0x3d370937	0.044686522
18	0xbc4941e0	-0.012283772
19	0xbd2dd5b1	-0.04244012
20	0x3c90c249	0.017670767
21	0x3c443337	0.011975101
22	0x3dce262a	0.10065873
23	0xbc818fc1	-0.015815618
24	0xbcd359fb	-0.025799742
25	0x3e00b2c8	0.125682
26	0x3c35dfac	0.011100691
27	0xbde2ca9f	-0.11073803
28	0xbd377045	-0.044784803
29	0x3d76684a	0.06015805
30	0x3dc9ea5d	0.098591544
31	0xbdbc5cee	-0.091974124
32	0x3d8b64bb	0.06806322
33	0xbcce9e2b	-0.025221905
34	0x3d7ffac4	0.062495008
35	0x3c132450	0.008980826
36	0x3d0051f8	0.03132817
37	0x3dd69e5c	0.104794234
38	0xbd37abda	-0.044841625
39	0x3db5f428	0.0888446
40	0x3da65229	0.081211396
41	0xbdb07de3	-0.08617761
42	0xbd5c8d06	-0.053845428
43	0xbd66fb27	-0.05639186
44	0x3e0cc34d	0.13746376
45	0xbdc5c24b	-0.09656199
46	0xbdddfbc8	-0.10839039
47	0x3de5cbcc	0.11220512
48	0xbdd04d3f	-0.101709835
49	0x3e0ecdc6	0.13945684
50	0xbcd06123	-0.025436943
51	0xbc8cc131	-0.017181965
52	0x3c79fba3	0.015257749
53	0x3dad2cb2	0.084557906
54	0x3caa5ff2	0.020797703
55	0x3d734f08	0.059401542
56	0xbd3d8c42	-0.04627634
57	0xbb8f2371	-0.0043682386
58	0xbda13185	-0.07870773
59	0xbd346023	-0.044036996
60	0xbc67bc71	-0.014144049
61	0xbda728ea	-0.081621006
62	0x3c91343e	0.017725106
63	0xbd10c4c7	-0.03534391
64	0x3de9a1ff	0.114078514
65	0xbde0ce69	-0.109768696
66	0xbdb40200	-0.08789444
67	0xbca8302d	-0.020530785
68	0x3c022476	0.007943263
69	0xbdcfc68e	-0.10145293
70	0xbdb85ab9	-0.09001679
71	0x3de0b0a9	0.10971195
72	0x3cc4c723	0.024020737
73	0x3dcc1f43	0.099669
74	0xbdc2b875	-0.09507839
75	0xbe1652d9	-0.14680041
76	0xbdc24bd6	-0.09487121
77	0xbd634e1d	-0.055494417
78	0x3daa3220	0.08310342
79	0x3d0f4145	0.034974355
80	0xbe10d1b6	-0.14142498
81	0xbd3fe3ba	-0.046848036
82	0xbd14e21d	-0.03634845
83	0x3dd921e3	0.106021665
84	0x3dca105b	0.09866401
85	0xbde7ad18	-0.11312312
86	0xbdcb1082	-0.09915258
87	0x3d9a2fff	0.07528686
88	0x3d756f90	0.059920847
89	0x3d4ccf41	0.05000234
90	0xbdd875ab	-0.105693184
91	0xbd310b45	-0.043223638
92	0x3d4daf4f	0.050216015
93	0x3d22969c	0.039694414
94	0x3dc6fb79	0.09715933
95	0x3d8ae40c	0.06781778
96	0x3df2e163	0.11859395
97	0x3dcc765d	0.099835135
98	0x3d203941	0.0391171
99	0xbcfefab3	-0.031125402
100	0x3cb0ed80	0.021597624
101	0x3d601211	0.05470473
102	0xbd859fbf	-0.0652461
103	0x3de149c6	0.11000399
104	0xbde4f110	-0.111787915
105	0x3d8d7226	0.06906538
106	0xbd4fa560	-0.050694823
107	0xbded1c64	-0.11577681
108	0x3c37e797	0.011224649
109	0xbdb18d66	-0.08669548
110	0x3db8cdc4	0.09023622
111	0xbd4eb3a5	-0.05046429
112	0x3d705f25	0.058684487
113	0x3d0ac40f	0.033878382
114	0x3dbc8872	0.092057124
115	0x3d627934	0.05529137
116	0xbdb54e23	-0.08852794
117	0x3db746ef	0.089490764
118	0x3de1d7d5	0.11027495
119	0x3cb2b519	0.02181487
120	0x3e161a88	0.14658558
121	0xbe188f5b	-0.14898436
122	0xbdb79265	-0.089634694
123	0x3cc1cc0d	0.02365687
124	0xbdf75e9e	-0.12078594
125	0xbe111386	-0.14167604
126	0xbe09419d	-0.13403936
127	0x3cc41a23	0.023938244
128	0xbe0866e7	-0.13320504
129	0x3bdca65e	0.0067336997
130	0x3d408114	0.0469981
131	0x3cbb98fb	0.022900095
132	0xbdb99d6d	-0.0906323
133	0xbc49ebf8	-0.012324326
134	0xbcc11d2c	-0.02357348
135	0x3de9ba12	0.11412443
136	0x3cf007d6	0.029300611
137	0xbb346ad6	-0.00275295
138	0x3cb13e0b	0.02163603
139	0x3bd016a1	0.006350354
140	0x3c671df5	0.014106263
141	0xbdfc676f	-0.12324416
142	0xbdc4f86c	-0.09617695
143	0xbc90cc9e	-0.017675694
144	0x3df3e763	0.11909368
145	0x3d8162cc	0.06317672
146	0xbdce9059	-0.10086126
147	0x3da19582	0.078898445
148	0x3d877da1	0.06615759
149	0x3d57189a	0.052513696
150	0xbdcffec6	-0.10156016
151	0xbcdb3c3d	-0.026762122
152	0x3dc67abc	0.096913785
153	0xbdf600ea	-0.12011893
154	0xbd81ad9c	-0.063319415
155	0x3e0ce5d7	0.13759552
156	0x3cb0b3e1	0.021570148
157	0xbd8ea728	-0.06965476
158	0xbdc3539f	-0.09537434
159	0x3de9b81a	0.11412068
160	0xbdaa8abb	-0.08327242
161	0xbcee8862	-0.029117767
162	0xbd40df34	-0.047087863
163	0x3d5b6f4e	0.053572945
164	0xbdcb9aa8	-0.09941608
165	0x3dab88d1	0.08375705
166	0xbd7e0f7f	-0.062026497
167	0x3d04c039	0.03240988
168	0xbcc75dd2	-0.02433673
169	0xbdec4363	-0.115362905
170	0x3d93d642	0.07218601
171	0x3d8e4a49	0.069477625
172	0xbdc4f847	-0.09617668
173	0x3db01695	0.08598057
174	0xbcbee40e	-0.023302104
175	0x3d01868e	0.031622462
176	0x3db81748	0.089888155
177	0x3d918300	0.071050644
178	0x3d55abfc	0.05216597
179	0x3c6c5f5c	0.014427032
180	0xbd3dde75	-0.04635473
181	0x3d2c9a68	0.04213944
182	0xbcb0bbf0	-0.02157399
183	0xbd87f88e	-0.06639205
184	0xbd921e14	-0.07134643
185	0xbdb715a1	-0.08939672
186	0x3c0d2743	0.008615318
187	0x3dbf3f42	0.09338237
188	0xbe093ade	-0.13401362
189	0x3dd115f9	0.10209269
190	0xbc9a1386	-0.018808138
191	0x3d94bcb6	0.07262556
192	0x3c5b4980	0.013384223
193	0x3aef2b26	0.0018247112
194	0xbd3ec4b5	-0.046574313
195	0xbc0be9c9	-0.008539625
196	0x3d9a3a0f	0.07530605
197	0x3e1e33b5	0.15449412
198	0xbcbe3e52	-0.023223076
199	0xbe0c0186	-0.13672456
200	0xbdda26f7	-0.10651963
201	0x3d19c267	0.037538912
202	0x3dac2304	0.08405116
203	0x3cd7cf93	0.026344096
204	0xbd98c76a	-0.0745991
205	0xbdfa6e8d	-0.12228117
206	0x3d0ee4a1	0.034886006
207	0xbd97fb09	-0.07420928
208	0x3d61ff4d	0.055175114
209	0x3d3cc7fd	0.04608916
210	0x3dd32fdf	0.10311865
211	0xbd80069f	-0.06251263
212	0x3b8670ab	0.0041027865
213	0x3d93d9f3	0.07219305
214	0x3daf0147	0.085451655
215	0xbd9425fb	-0.07233807
216	0xbdbac8e6	-0.091203496
217	0xbce8a47e	-0.028398748
218	0xbd902b8a	-0.070395544
219	0x3defe307	0.11713224
220	0x3b6e5bc0	0.0036370605
221	0xbdbb261f	-0.091381304
222	0xbdc0f0df	-0.094209425
223	0x3da1b549	0.078959055
224	0xbe033e74	-0.12816793
225	0xbcaea6b9	-0.021319734
226	0xbda645ec	-0.08118805
227	0xbd05baf1	-0.032648984
228	0x3c5b4208	0.013382442
229	0x3d07b1e4	0.033128634
230	0x3b206071	0.0024471546
231	0x3cc30a70	0.023808688
232	0xbd433aed	-0.047663618
233	0x3d97a35a	0.07404204
234	0x3d0f6c10	0.035015166
235	0x3c12229b	0.008919383
236	0xbc878497	-0.016542716
237	0x3d9ddfd2	0.07708706
238	0x3dff3160	0.124605894
239	0xbdeb69d8	-0.114947975
240	0xbcd9be69	-0.026580052
241	0x3d733aca	0.059382237
242	0xbdc0479a	-0.09388657
243	0x3b5a19ab	0.003327946
244	0x3def09dd	0.11671803
245	0x3c5a6c6c	0.013331514
246	0x3d9284d2	0.0715424
247	0xbdbab42c	-0.09116396
248	0xbb105ed6	-0.0022029183
249	0x3dcdbeab	0.10046133
250	0x3de9e984	0.11421493
251	0x3d39625d	0.045259822
252	0xbd89be67	-0.067257695
253	0xbda28f0b	-0.079374395
254	0x3df3afc1	0.11898757
255	0x3db54d24	0.08852604

shared.2.weight f4 [256, 256]
0	0x3d4eb63f	0.050466772
1	0xbd6fa0c2	-0.05850292
2	0xbd3e5810	-0.0464707
3	0x3dbed682	0.09318258
4	0xbccc7e15	-0.024962464
5	0x3c535af7	0.012900106
6	0xbd198d11	-0.037488047
7	0x3cab568b	0.02091529
8	0xbd9ef82b	-0.07762178
9	0xbcdeaebd	-0.027182931
10	0xbd569a01	-0.052392963
11	0xbcbba4db	-0.022905758
12	0xbd1818e4	-0.037133113
13	0x3d9f4e0f	0.0777856
14	0x37234302	9.731159e-06
15	0xbd48b471	-0.049000207
16	0xbd4724c9	-0.048619065
17	0x3d18b08b	0.03727774
18	0x3d4a3ec3	0.04937626
19	0xbce356fb	-0.027751436
20	0x3d1c219d	0.038117994
21	0xbd3ab3ca	-0.045581616
22	0xbdd8e158	-0.10589856
23	0x3ce1b905	0.027554044
24	0xbdb90d75	-0.0903577
25	0x3a8226c4	0.0009929766
26	0x3d28d114	0.041215017
27	0xbd833b00	-0.06407738
28	0xbc38d9aa	-0.011282364
29	0x3d45fcac	0.04833667
30	0xbd70ba7a	-0.058771588
31	0x3d95bee7	0.07311802
32	0xbdb2ee6d	-0.08736882
33	0xbc54f933	-0.012998867
34	0x3d38571b	0.045004945
35	0xbd65cdb2	-0.05610437
36	0x3d185ab5	0.03719588
37	0xbc1a6cc3	-0.009425345
38	0x3d5ce52e	0.0539295
39	0x3cbe59a8	0.02323611
40	0xbc992be9	-0.018697696
41	0x3aa43aa2	0.0012529681
42	0x3ccc3e68	0.024932101
43	0xbda53e1c	-0.08068487
44	0x3dd91e1b	0.10601445
45	0xbdabe8cd	-0.083940126
46	0xbd1d3725	-0.038382668
47	0x3cbc3ba7	0.022977663
48	0xbd52cd43	-0.051465284
49	0x3d9c0d5f	0.07619738
50	0x3bc9c5bd	0.0061576054
51	0xbdc463d0	-0.0958935
52	0xbcf60ef1	-0.030036421
53	0xbdab65e5	-0.08369044
54	0x3d50b9cb	0.050958436
55	0x3d8d3d0d	0.0689641
56	0xbd567495	-0.052357275
57	0xbcb0d905	-0.021587858
58	0x3d7a62d2	0.0611294
59	0x3d9d6ba8	0.076865494
60	0x3c8fb5f8	0.017542824
61	0x3d7ca735	0.0616829
62	0xbc448440	-0.0119944215
63	0xbd75717d	-0.059922684
64	0x3d87e4a3	0.06635406
65	0x3c2d3b44	0.010573212
66	0x3b9a64e0	0.0047117323
67	0x3d1fef0c	0.039046332
68	0xbdcb4fb3	-0.09927311
69	0xbd221c98	-0.03957805
70	0xbc54b522	-0.012982639
71	0x3d445255	0.04793008
72	0x3b908875	0.004410798
73	0x3d1963f9	0.037448857
74	0x3db1f09c	0.08688471
75	0xbd941ce5	-0.07232074
76	0x3c664cbd	0.014056382
77	0xbe16093b	-0.14651959
78	0xbb3623f6	-0.002779243
79	0xbcd8989e	-0.026439961
80	0x3d7ddacd	0.061976243
81	0xbd3cde58	-0.04611048
82	0x3d30c55b	0.043156963
83	0x3dd619c2	0.10454132
84	0xbd6a17b4	-0.05715151
85	0x3dddcd8a	0.10830219
86	0x3cb51148	0.022102967
87	0xbd738c26	-0.059459828
88	0xbc18f577	-0.009335867
89	0x3d169b71	0.036769334
90	0x3d8d5144	0.06900266
91	0xbd08f757	-0.033439007
92	0xbc5b3d2b	-0.013381283
93	0xbbe225e1	-0.006901488
94	0xbce0526a	-0.027383048
95	0xbd128393	-0.03577001
96	0x3c5eca82	0.013598086
97	0x3d707305	0.05870344
98	0xbc5d1081	-0.013492704
99	0xbde01160	-0.10940814
100	0x3ca5f66a	0.020259101
101	0x3d7c67a9	0.061622296
102	0xbc9e1f53	-0.019302046
103	0xbd95c63d	-0.073132016
104	0xbcee4256	-0.029084366
105	0x3d0d8df9	0.034559224
106	0xbd54da09	-0.051965747
107	0xbda6717d	-0.08127115
108	0x3d77119a	0.06031952
109	0x3d05f175	0.032700974
110	0x3c5af7e3	0.013364765
111	0x3d16cff2	0.036819406
112	0xbd7a8d59	-0.061169956
113	0xbd1b4697	-0.037909117
114	0xbdd462c6	-0.10370402
115	0xbb98c686	-0.0046623377
116	0xbbde1d05	-0.0067783617
117	0xbd5c3d18	-0.0537692
118	0x3cae2cda	0.021261621
119	0x3d01aedb	0.031660896
120	0x3cb0122f	0.021493046
121	0x3bc567cc	0.0060243364
122	0xbcd5afc0	-0.02608478
123	0x3b92eb6e	0.004483632
124	0x3b34e084	0.0027599642
125	0xbd257ae9	-0.04040042
126	0x3c08f81b	0.008359934
127	0x3dd7c8a9	0.1053632
128	0xbc1c36c7	-0.009534544
129	0x3c3f2876	0.0116673615
130	0x3d6b41e2	0.057435878
131	0xbd2b9d17	-0.04189786
132	0x3d282fa2	0.04106105
133	0x3ca1cff2	0.019752476
134	0x3d552bd3	0.052043747
135	0xbc7b58a7	-0.015340961
136	0x3d5cf69c	0.053946123
137	0x3d64b7ea	0.055839457
138	0xbc87a4a3	-0.016557997
139	0x3c444070	0.011978254
140	0x3d202f54	0.039107636
141	0xbc8f32c8	-0.01748027
142	0x3dd231aa	0.10263379
143	0xbd8103b4	-0.062995344
144	0x3e1216ab	0.1426646
145	0x3c69071d	0.014222887
146	0x3d422c96	0.0474058
147	0xbc6f0583	-0.014588716
148	0xbdd4796b	-0.10374721
149	0xbd90c26f	-0.07068335
150	0xbd89d18f	-0.06729423
151	0xbcb7e44c	-0.022447728
152	0xbcdc15d3	-0.026865875
153	0x3d3749e4	0.044748202
154	0x3e2b481b	0.16726725
155	0xbc9cc8e2	-0.019138757
156	0x383c3bfc	4.4878558e-05
157	0xbcb62c5d	-0.022237951
158	0x3d5ac97d	0.05341481
159	0xbc460eab	-0.012088458
160	0xbd6684b2	-0.05627889
161	0x3d2b13be	0.041766874
162	0x3c560af0	0.013064131
163	0x3c9c5e2d	0.019087875
164	0xbdc10340	-0.09424448
165	0xbd29edd7	-0.041486587
166	0xbd511be5	-0.051051993
167	0x3d05d8b4	0.032677367
168	0xbd580127	-0.052735474
169	0x3c22f9b6	0.009947231
170	0x3d3a4f22	0.045485623
171	0xbd9f9dbc	-0.07793757
172	0x3d69cfb6	0.057082854
173	0x3b8f04c8	0.0043645836
174	0xbb53ab1e	-0.0032298039
175	0x3c678956	0.0141318645
176	0xbd4c86b8	-0.049933165
177	0xbc8e3d10	-0.017363101
178	0xbd64ec74	-0.05588956
179	0xbd2a54db	-0.04158483
180	0xbd0d961c	-0.034566984
181	0x3d6ae135	0.05734368
182	0xbcd58d7b	-0.02606844
183	0xbd2a5c27	-0.04159179
184	0x3d95828a	0.07300289
185	0xbd1cd331	-0.038287345
186	0xbbd600ef	-0.006530873
187	0x3bc72a46	0.0060780374
188	0x3dc7ea88	0.0976153
189	0xbb131280	-0.0022441447
190	0x3c885c8c	0.016645692
191	0xbcd670a3	-0.026176756
192	0xbc9e6cf5	-0.019339064
193	0xbce7e59f	-0.028307734
194	0x3d30af02	0.04313565
195	0xbcc6eb76	-0.024282198
196	0x3de763ec	0.112983555
197	0x3c36a022	0.011146577
198	0x3d6961f3	0.056978177
199	0x3d849b3f	0.06474923
200	0x3c19f111	0.009395854
201	0x3db0f9c7	0.08641391
202	0x3d7c5fc0	0.06161475
203	0xbe0c0ec4	-0.13677508
204	0x3d74851d	0.05969726
205	0x3d5a6ac7	0.053324487
206	0x3c7b8ec8	0.015353866
207	0x3d9fed15	0.07808892
208	0x3d13ea0f	0.036111888
209	0x3a9d846f	0.0012017618
210	0x3d7e756c	0.0621237
211	0x3d45f61e	0.04833042
212	0xbd26548f	-0.040607985
213	0x3c5bf6bf	0.013425528
214	0xbd1dde44	-0.038542047
215	0x3d812213	0.06305327
216	0x3d71b937	0.059014525
217	0x3cb0556d	0.02152511
218	0xbda6e64f	-0.08149397
219	0xbce8fb60	-0.028440177
220	0x3b1a0053	0.0023498728
221	0x3debaa77	0.11507123
222	0x3d1a18a0	0.03762114
223	0x3d0f899b	0.03504334
224	0x3d3fec1a	0.046856023
225	0xbaaf2d34	-0.0013364912
226	0xbdb146c2	-0.08656074
227	0xbd8a34eb	-0.067483746
228	0xbd220120	-0.039551854
229	0xbca0492f	-0.019566147
230	0x3cee90c9	0.029121773
231	0x3d036594	0.032079294
232	0xbda13061	-0.07870556
233	0x3dbdf840	0.092758656
234	0x3d3e8b19	0.046519373
235	0x3dbb24ca	0.09137876
236	0xbc563504	-0.013074163
237	0xbd3596c8	-0.04433325
238	0x3cb5f9fb	0.022213927
239	0x3d5995e7	0.053121474
240	0x3dc2e778	0.095168054
241	0x3b7929cc	0.0038019298
242	0xbd25ceb3	-0.040480327
243	0xbd53f895	-0.05175074
244	0x3b8af1fa	0.0042402716
245	0x3d7442fe	0.0596342
246	0x3cc48fcf	0.023994355
247	0x3c9d36ee	0.019191232
248	0x3b6c8668	0.0036090855
249	0xbbe6a341	-0.0070385044
250	0x3baee9ee	0.005337945
251	0x3d826287	0.06366449
252	0xbd1c1f83	-0.03811599
253	0x3d7e18f8	0.06203553
254	0xbb56b1ee	-0.0032759863
255	0xbd027a6f	-0.031855043

shared.2.bias f4 [256]
0	0x3bae4d29	0.005319257
1	0xbdb0f1e8	-0.0863989
2	0x3d7cc8a4	0.061714783
3	0xbc4fd1ae	-0.012684269
4	0x3d52c95d	0.051461566
5	0x3d6644b7	0.056217875
6	0x3d0fdfc2	0.0351255
7	0x3cd42854	0.025898136
8	0x3cbf32af	0.023339598
9	0x3d66ba05	0.056329746
10	0xbd8df66f	-0.06931769
11	0xbcb42192	-0.021988664
12	0xbd7d97f1	-0.06191248
13	0x3b1d34cd	0.002398777
14	0xbc93746c	-0.01799985
15	0x3d2b0aef	0.041758474
16	0x3b854d46	0.0040680496
17	0xbd5c7572	-0.053822942
18	0x3cf44361	0.029817285
19	0xbd0320a1	-0.03201354
20	0xbce6d7a3	-0.028178995
21	0xbd464593	-0.048406195
22	0xbd7f74ce	-0.062367253
23	0xbd16d202	-0.036821373
24	0x3d22510a	0.039628066
25	0x3d9adc15	0.075615086
26	0x3c0a69d2	0.008448081
27	0x3c127ad3	0.008940416
28	0x3cb00396	0.021486085
29	0x3c96155d	0.018320734
30	0xbbd95b93	-0.006633231
31	0x3b2dabc6	0.002650009
32	0x3d6c77cc	0.057731435
33	0xbd5a0dde	-0.05323588
34	0xba97cf24	-0.0011582118
35	0xbd9a4e09	-0.07534415
36	0x3d4f7e1d	0.05065738
37	0xbd3119f4	-0.04323764
38	0x3cc0a179	0.023514496
39	0xbced024c	-0.02893176
40	0x3d87fe0e	0.06640254
41	0x3db500e1	0.08838058
42	0xbccc4490	-0.024935037
43	0xbd9d0574	-0.07667056
44	0xbd8f243a	-0.069893315
45	0xbd711c13	-0.058864664
46	0x3cb78cc4	0.02240599
47	0x3da9da7c	0.08293626
48	0xbcdc9d06	-0.026930343
49	0x3d23069a	0.039801218
50	0xbd2d6cbe	-0.042340033
51	0x3d1dc03b	0.038513403
52	0xbd1789cb	-0.036996644
53	0x3d146fb5	0.036239345
54	0xbbb5d07f	-0.0055485363
55	0xb9ba2274	-0.00035502354
56	0x3c182847	0.009286947
57	0x3d6dbd29	0.058041725
58	0x3c25639e	0.010094551
59	0x3d9b447d	0.075814225
60	0xbc99653e	-0.018725034
61	0xbd3e5e74	-0.046476796
62	0xbb499e97	-0.0030764693
63	0x3c0568dc	0.008142676
64	0xbd879e34	-0.06621972
65	0xbcfc8c56	-0.030828636
66	0x3d2e5e2f	0.04257029
67	0x3ba5899b	0.0050518042
68	0x3d51d759	0.051230762
69	0x3c0bab91	0.008524791
70	0x3d199795	0.037498076
71	0x3db2acee	0.0872439
72	0x3d283df5	0.04107471
73	0xbcb91ffa	-0.022598255
74	0x3d34cb7d	0.044139374
75	0x3d41ceec	0.047316477
76	0x3c563bb3	0.013075757
77	0xbd2192ad	-0.03944652
78	0x3ca8e205	0.020615587
79	0x3d89b529	0.06724007
80	0xbcf25627	-0.029582096
81	0xbd7b4018	-0.06134042
82	0x3c08bfb9	0.0083464915
83	0x3ce94a56	0.028477829
84	0xbcfc78a1	-0.03081924
85	0xbc9b763b	-0.018977275
86	0xbc866fc0	-0.016410708
87	0xbd9174c7	-0.07102352
88	0xbc0432e1	-0.008068771
89	0x3c5e09d5	0.013552149
90	0x3d305af5	0.043055493
91	0x3d0b5f33	0.034026336
92	0xbcdbc59a	-0.026827622
93	0xbd2acaeb	-0.041697424
94	0xbcf152d8	-0.029458448
95	0x3ced0856	0.028934639
96	0xbdc8d370	-0.098059535
97	0xbb8b6feb	-0.004255285
98	0x39daa042	0.00041699602
99	0xbc11ed4f	-0.008906676
100	0xbca8966d	-0.020579541
101	0xbcd6f120	-0.026238024
102	0xbd01b782	-0.031669147
103	0xbd63b84f	-0.055595692
104	0x3ccfb12a	0.025353033
105	0xbd7cf837	-0.061760154
106	0xbd8e1c1a	-0.06938954
107	0x3d951ed7	0.07281273
108	0xbc049e25	-0.008094345
109	0x3d39b2ea	0.04533664
110	0xbc5e62d6	-0.013573369
111	0xbd543154	-0.051804855
112	0x3be50c70	0.006990008
113	0x3b8cd031	0.0042972793
114	0xbd2beafb	-0.04197214
115	0xbd5cca95	-0.053904135
116	0x3b098a9c	0.0020987159
117	0xbdcf893c	-0.10133597
118	0x3ab48b8c	0.0013774498
119	0x3d208844	0.039192453
120	0xbc70e235	-0.014702369
121	0x3ca28eea	0.019843537
122	0x3d7677a5	0.060172696
123	0xbcbec0c9	-0.023285287
124	0xbc81831c	-0.015809588
125	0xbd503ac6	-0.0508373
126	0xbc1966a2	-0.0093628485
127	0x3cfc501a	0.030799914
128	0xbd07db6c	-0.03316824
129	0xbd444b01	-0.04792309
130	0x3cc142c9	0.023591416
131	0xbca0dbec	-0.019636117
132	0x3beb51f2	0.0071813995
133	0x3d991491	0.07474626
134	0x3d900c85	0.07033638
135	0x3d91c7db	0.071181975
136	0x3bb4b041	0.005514175
137	0xbd04a0a7	-0.032379773
138	0x3d5908cf	0.052986916
139	0xbd095938	-0.03353235
140	0x3ccb954b	0.024851462
141	0xbd317ad7	-0.04333004
142	0xbc88afc5	-0.016685376
143	0xbcc16212	-0.023606334
144	0xbcaf0a66	-0.021367263
145	0xbd49f612	-0.049306937
146	0x3c2df330	0.010617062
147	0xbb7bdfda	-0.0038432986
148	0xbd839a9b	-0.06425973
149	0xbc10d354	-0.008839447
150	0xbcb313a0	-0.021859944
151	0xbd18c9fa	-0.037301995
152	0x3c840804	0.016117103
153	0x3cb70ad4	0.02234403
154	0xbd6b2f24	-0.057418004
155	0xbd4d7e8a	-0.050169505
156	0xbd795fbb	-0.06088231
157	0x3d05131c	0.032488927
158	0x3c135724	0.008992944
159	0xbdcaf48d	-0.099099256
160	0xbd498731	-0.049201194
161	0x3c779ddb	0.015113319
162	0xbd3c13a5	-0.045917172
163	0x3e058ed8	0.13042772
164	0x3b342889	0.002748998
165	0x3ce83790	0.028346807
166	0xbca90fd2	-0.020637427
167	0xbd31d607	-0.043417003
168	0xbd5cac19	-0.053875063
169	0xbd4fb013	-0.050705027
170	0xbcde8427	-0.027162625
171	0x3afde0dd	0.0019369383
172	0xbca7e924	-0.020496912
173	0x3d19610e	0.037446074
174	0xbcfbeaf7	-0.030751688
175	0x3d17fc7a	0.037106015
176	0xbcbbba9b	-0.022916129
177	0xbb1fd885	-0.002439053
178	0xbcf17a71	-0.02947733
179	0x3bd56edb	0.006513459
180	0x3d0039d0	0.031305134
181	0xbd0b49c5	-0.0340059
182	0xbba45fa7	-0.0050162855
183	0x3d5121c6	0.0510576
184	0xbd1a7112	-0.03770549
185	0xbd3adf7b	-0.045623284
186	0x3d3c9e15	0.046049196
187	0xbc9aa31d	-0.018876607
188	0xbd525001	-0.05134583
189	0xbbbfe5fe	-0.0058562746
190	0x3cc7e963	0.02440328
191	0x3cf52ff5	0.029930094
192	0x3d13bb30	0.036067188
193	0x3dac2c1b	0.0840685
194	0x3d4b7c05	0.04967882
195	0x3cc6eff5	0.024284342
196	0xbd1e6c61	-0.038677577
197	0x3d903376	0.070410654
198	0x3be3503a	0.006937054
199	0x3cb8dab4	0.022565223
200	0xbc147e01	-0.009063245
201	0xbce94dad	-0.028479422
202	0xbcf69623	-0.030100888
203	0x3c862514	0.016375102
204	0xbcb88e9b	-0.022528937
205	0xbce6cbcb	-0.028173348
206	0xbc5f03c1	-0.013611735
207	0x3d41ab0d	0.047282267
208	0x3d339fb5	0.04385348
209	0xbca18dfc	-0.019721024
210	0x3c165a70	0.009176835
211	0xbc3745b2	-0.01118605
212	0xbd578afb	-0.052622776
213	0xbd0e3daa	-0.034726776
214	0x3c29c84c	0.010362696
215	0x3d110cbd	0.03541254
216	0xbc487503	-0.012234929
217	0x3c480a06	0.012209421
218	0x3d138497	0.03601512
219	0xbd6fc4c3	-0.058537256
220	0xbcf5c75e	-0.030002292
221	0xbd3eef34	-0.04661484
222	0xbb818852	-0.003953018
223	0xbd35cbf7	-0.04438397
224	0xbd1fd6af	-0.039023098
225	0xbb72f8cc	-0.0037074564
226	0xbdd22651	-0.102612145
227	0x3c6e4af7	0.01454424
228	0xbd189a68	-0.03725663
229	0xbc5a5409	-0.0133257
230	0xbd0d6967	-0.034524348
231	0x3c81c582	0.01584125
232	0xbc807f5c	-0.01568573
233	0xbcb7863a	-0.022402871
234	0x3d75d52e	0.060017757
235	0xbc417913	-0.0118086515
236	0xb94d6f53	-0.00019591795
237	0x3cc35304	0.023843296
238	0x3d733e70	0.059385717
239	0x3dc9e8fe	0.09858893
240	0x3bdb5e00	0.0066945553
241	0x3d9a8ea6	0.07546739
242	0xbd411a02	-0.047143944
243	0x3d9e64df	0.077340834
244	0x3d1a402b	0.03765885
245	0x3d07d32b	0.03316037
246	0x3d48052d	0.04883306
247	0x3c8455c4	0.016154177
248	0x3c485a86	0.012228614
249	0xbd503607	-0.050832774
250	0x3baab30f	0.0052093337
251	0xb89a7c36	-7.366428e-05
252	0x3d0bc495	0.034123022
253	0x3d52d7b4	0.05147524
254	0xbb89f5ee	-0.0042102253
255	0xbba02fcc	-0.0048885103

policy_head.weight f4 [16, 256]
0	0xbd2afbf4	-0.041744187
1	0x3d4db18e	0.050218157
2	0x3cb5d5ee	0.022196736
3	0xbd0b1381	-0.033954147
4	0xbcc20cc5	-0.02368773
5	0xbd15ca3d	-0.036569823
6	0x3d42e2cc	0.04757957
7	0xbc48e047	-0.012260503
8	0xbc08d85f	-0.008352368
9	0xbd85d8f8	-0.06535524
10	0x3d8ce498	0.06879538
11	0x3c9f57bd	0.019451017
12	0x3a150436	0.00056845264
13	0x3d8ca403	0.0686722
14	0x3d4cc243	0.04998995
15	0xbd8002bc	-0.062505215
16	0x3d3ceed7	0.046126213
17	0x3bfa0449	0.0076299054
18	0x3cd8e682	0.026477102
19	0xbcb3cf18	-0.021949336
20	0x3d5c2a6a	0.053751387
21	0xbc3fb3b8	-0.011700563
22	0xbd7a6efa	-0.06114099
23	0x3d7b708b	0.061386626
24	0x3cdbec46	0.026846062
25	0xbd8c3ff5	-0.06848136
26	0x3c805420	0.015665114
27	0xbd48654f	-0.04892474
28	0xbd456f3b	-0.04820178
29	0x3d25ed87	0.040509727
30	0x3c6c8e5b	0.014438237
31	0x3d4606c0	0.04834628
32	0x3c5f7256	0.0136381
33	0xbd0d0bb1	-0.034434978
34	0xbc13019a	-0.00897255
35	0x3bbd5139	0.0057775048
36	0xbd4355e5	-0.047689337
37	0x3cb5fff9	0.022216784
38	0xbd2b452a	-0.041814007
39	0xbd098ff6	-0.033584557
40	0x3d0322d5	0.03201564
41	0xbd1df6ca	-0.038565435
42	0xbce18415	-0.027528802
43	0x3c217834	0.009855319
44	0x3ca89bc9	0.020582097
45	0xbd646172	-0.055756994
46	0x3d8aa91b	0.067705356
47	0xbcfd4998	-0.030918881
48	0xbd0d8d70	-0.034558713
49	0xbcab1cde	-0.020887788
50	0xbc98d3c1	-0.01865566
51	0xbd869f50	-0.06573355
52	0x3d98a08f	0.07452499
53	0xbd8758db	-0.06608745
54	0x3c9c512f	0.01908168
55	0x3ca6dc3c	0.020368688
56	0xbc843ce8	-0.016142324
57	0x3c796425	0.01522163
58	0x3c87d90e	0.016582992
59	0x3ae7e7df	0.0017693004
60	0xbc16182d	-0.009161037
61	0x3ca24a71	0.019810887
62	0xbbb89749	-0.005633269
63	0x3d529e73	0.05142064
64	0x3d637548	0.05553177
65	0xbc246626	-0.01003412
66	0xbc69b6a4	-0.014264736
67	0x3d340abf	0.04395556
68	0x3c0ffaa4	0.008787785
69	0xbd046814	-0.03232582
70	0xbd0a2ad3	-0.033732247
71	0x3d25af65	0.040450472
72	0xbcc4ff6b	-0.024047574
73	0xbce4836f	-0.027894704
74	0xbd5cfb3a	-0.053950526
75	0xbc572fde	-0.013133971
76	0x3d0f6ae5	0.035014052
77	0x3d9bec0d	0.076133825
78	0xbd6071f2	-0.054796167
79	0x3d888d89	0.06667621
80	0x3c910f9a	0.017707635
81	0x3ab79b1e	0.001400802
82	0x3cde1b82	0.027112726
83	0xbd39479b	-0.045234304
84	0x3d3ec36b	0.046573084
85	0x3d1e682e	0.038673572
86	0xbc1eaea3	-0.009685191
87	0x3c326b44	0.010889832
88	0x3d30aa54	0.043131188
89	0xbcca15a9	-0.024668531
90	0x3d17dac3	0.03707386
91	0xbd047d3d	-0.032346
92	0x3d9af3c0	0.07566023
93	0xbcbde94e	-0.023182537
94	0x3d4a9440	0.04945779
95	0x3c8af2cf	0.016961483
96	0x3c744ef9	0.014911407
97	0x3d373382	0.044726856
98	0xbcbd221e	-0.023087557
99	0x3bbba3a1	0.005726293
100	0x3d08ecfc	0.03342913
101	0x3d830e1c	0.063991755
102	0xbcc2a179	-0.023758637
103	0xbd359ff4	-0.044341996
104	0xbd6d2f92	-0.057906695
105	0xbc11d7bf	-0.0089015355
106	0x3d573f84	0.052550808
107	0x3bb5e965	0.0055515044
108	0xbd13af8a	-0.03605608
109	0x3cd3aad4	0.025838293
110	0xbd6fc2fc	-0.05853556
111	0x3d43f9a0	0.047845483
112	0xb9b7c57e	-0.00035051623
113	0xbd05a823	-0.03263105
114	0x3d38bf8d	0.045104552
115	0x3d2348d1	0.039864365
116	0xbd84ec05	-0.0649033
117	0x3d2c0921	0.042000894
118	0x3a90fef0	0.0011062305
119	0xbd16f0c0	-0.03685069
120	0x3b80dd56	0.0039326353
121	0xbd6b68ab	-0.057472866
122	0xbcc149d2	-0.02359477
123	0x3d6c8695	0.057745535
124	0xbc957a0c	-0.018246673
125	0x3d6662d4	0.056246594
126	0xbd49f38b	-0.049304526
127	0xbc9c55ed	-0.019083941
128	0x3ce228b9	0.027607309
129	0x3d81a955	0.06331126
130	0xbd30912b	-0.043107193
131	0x3cab7872	0.020931456
132	0x3d497186	0.04918053
133	0xbd00e118	-0.031464666
134	0x3badf6f9	0.0053089825
135	0x3d337c60	0.043819785
136	0x3d78ed20	0.060773015
137	0x3d042773	0.032264184
138	0xbcbed4d5	-0.023294846
139	0x3d001339	0.031268332
140	0xbc0a1043	-0.008426729
141	0x3cc59cec	0.024122678
142	0xbd16e534	-0.03683968
143	0x3d94663c	0.07246062
144	0x3d888005	0.06665043
145	0xbd75ff9e	-0.06005823
146	0xbc8a52fd	-0.016885275
147	0xbce7e1d6	-0.02830593
148	0x3d3b8885	0.045784492
149	0xbd1b752c	-0.03795354
150	0x3d25a03a	0.040436007
151	0xbb88197a	-0.0041534277
152	0xbcbcc164	-0.023041435
153	0xbc600495	-0.013672967
154	0xbd044bc8	-0.032298833
155	0x3cc7ccda	0.024389673
156	0x3d8c9b8c	0.06865606
157	0x3b00cbd8	0.001965275
158	0x3d296c16	0.041362844
159	0x3d16655a	0.03671775
160	0xbd22029d	-0.039553273
161	0xbb5eaaa3	-0.003397622
162	0x3bd5e80f	0.0065279077
163	0xbd842be4	-0.06453684
164	0x3d2a4c30	0.041576564
165	0x3d9c211e	0.07623504
166	0x3d61b7d9	0.05510697
167	0x3d3997e8	0.045310885
168	0xbd07be3d	-0.03314041
169	0xbd82eabb	-0.063924275
170	0xbd2e77d0	-0.04259473
171	0xbc82d3ad	-0.015970076
172	0x3d18f125	0.03733935
173	0x3d280a89	0.041025672
174	0x3d44a011	0.048004214
175	0xbc9e114d	-0.019295359
176	0xbd0ad94a	-0.03389863
177	0x3cbf8514	0.023378886
178	0xbc0c9ba9	-0.008582034
179	0x3c5b4a2b	0.013384382
180	0xbbe553ca	-0.006998514
181	0xbd3961c9	-0.04525927
182	0x3bb5caa1	0.005547837
183	0x3cdb1b52	0.026746426
184	0x3c98be3f	0.018645404
185	0xbceb5968	-0.028729156
186	0x3d3121b1	0.04324502
187	0x3d2060cf	0.039154824
188	0xbbd15f3b	-0.006389526
189	0xbcebd1c4	-0.028786547
190	0xbdacc6eb	-0.08436378
191	0xbd2631ce	-0.04057484
192	0xbc06526f	-0.008198365
193	0x3c2be6fa	0.010492081
194	0x3d505516	0.050862394
195	0x3d524b8a	0.05134157
196	0xbbc8b681	-0.006125272
197	0x3d9d9125	0.076937
198	0xbd94e658	-0.07270497
199	0x3d38d843	0.04512812
200	0x3d80db46	0.06291823
201	0x3d60024e	0.054689698
202	0xbbe79e92	-0.0070684636
203	0x3cdb29ee	0.026753392
204	0xbd149ef8	-0.036284417
205	0x3d63cdb1	0.055616084
206	0xbbd61a8b	-0.006533926
207	0x3d583548	0.052785188
208	0xbbbee21b	-0.0058252937
209	0x3d53bb18	0.0516921
210	0xbc93980a	-0.018016834
211	0x3c104988	0.008806594
212	0x3d1a3708	0.03765014
213	0xbd3c51db	-0.0459765
214	0xbd14819d	-0.03625642
215	0x3ba0828e	0.004898376
216	0xbda0df0d	-0.078550436
217	0xbd657805	-0.056022663
218	0xbbcdf06e	-0.006284765
219	0x3d813e95	0.06310765
220	0x3cae0082	0.021240477
221	0xbbe1506b	-0.0068760416
222	0x3d98841d	0.074470736
223	0x3bc1774e	0.005904115
224	0xbc92a3ff	-0.017900465
225	0xbd1d49bc	-0.038400397
226	0x3b8df40b	0.0043320707
227	0x3cb04de2	0.021521512
228	0x3c65ffed	0.014038068
229	0x3d96de92	0.07366671
230	0xbcd7a563	-0.02632398
231	0x3d1b08a1	0.037850026
232	0x3cf88797	0.030338092
233	0xbc4806e2	-0.012208672
234	0x3ce256ab	0.027629217
235	0xbaefeebd	-0.0018305402
236	0x3c6f18e1	0.014593334
237	0x3cc8a77c	0.024493925
238	0xbd47d832	-0.048790164
239	0xbc9b4705	-0.018954763
240	0xbc7e7454	-0.0155306645
241	0xbd6fef01	-0.05857754
242	0xbd4ba3a2	-0.0497166
243	0xbd6a7d36	-0.057248317
244	0x3d33bbb1	0.04388017
245	0x3cee40ec	0.029083692
246	0xbc9e884f	-0.019352106
247	0xbd64d708	-0.055869132
248	0xbcf08c9e	-0.029363927
249	0xbd23190c	-0.03981881
250	0x3c6e7734	0.014554787
251	0x3b6abbfe	0.0035817618
252	0x3d34df41	0.044158224
253	0xbbaa0fc8	-0.0051898696
254	0x3d41ccee	0.047314577
255	0xbda016bd	-0.07816837

policy_head.bias f4 [16]
0	0xb9af2f18	-0.0003341369
1	0xbd0e3d27	-0.03472629
2	0xbdadee9e	-0.08492778
3	0xbd0a39c2	-0.03374649
4	0xbd87f1f2	-0.06637944
5	0x3daf7ab2	0.08568324
6	0x3d2e5a15	0.042566378
7	0x3d52bf24	0.051451817
8	0xbd8a9154	-0.067660004
9	0xbe1561f7	-0.14588152
10	0xbb86b3c0	-0.0041107833
11	0xbcf9d069	-0.030494886
12	0xbcdbc47b	-0.026827088
13	0x3d283d7e	0.04107427
14	0xbd0abd9c	-0.03387223
15	0x3dacd0e5	0.08438281

value_head.weight f4 [1, 256]
0	0x3ce699e3	0.02814955
1	0x3d5a0f3e	0.053237192
2	0xbd9efc04	-0.07762912
3	0x3cf2f252	0.029656563
4	0xbdb75b15	-0.089529194
5	0x3a255c79	0.000630803
6	0xbb8e1a98	-0.0043366663
7	0x3d333817	0.043754663
8	0x3d5366cb	0.051611703
9	0xbd3ce012	-0.046112128
10	0xbd0844b0	-0.03326863
11	0xbd89a313	-0.06720557
12	0x3da08b72	0.07839097
13	0xbc9509fe	-0.018193241
14	0x3d6157fc	0.05501555
15	0xbb45b89c	-0.003016985
16	0xbd2ec833	-0.042671394
17	0xbcbad338	-0.022805795
18	0xbd95702f	-0.07296788
19	0x3d853d49	0.0650583
20	0xba97d462	-0.0011583681
21	0xbd109f39	-0.035308097
22	0x3caf36db	0.021388462
23	0xbde53cb0	-0.11193216
24	0x3d655cde	0.05599677
25	0xbd037390	-0.03209263
26	0x3d5dc555	0.05414327
27	0x3d86b85b	0.06578132
28	0x3da62fbe	0.08114575
29	0xbde2e977	-0.11079686
30	0x3d49254b	0.04910783
31	0xbc108713	-0.008821267
32	0x3d82ed83	0.06392958
33	0x3d6005ef	0.05469316
34	0xbc20d6b8	-0.009816818
35	0x3d831b40	0.06401682
36	0x3d327755	0.043570835
37	0xbba938d6	-0.005164246
38	0xbd012611	-0.031530444
39	0x3df4f304	0.11960414
40	0x3b8f8735	0.0043801316
41	0xbccc7358	-0.024957344
42	0x3d029d24	0.031888142
43	0xbd848f98	-0.06472701
44	0x3cc930b0	0.024559349
45	0x3d20a70f	0.03922182
46	0xbccd7dcf	-0.025084404
47	0xbd809dcd	-0.06280098
48	0xbd0910f1	-0.033463422
49	0xbb19516d	-0.002339448
50	0x3d0047d7	0.03131851
51	0x3cab9857	0.020946665
52	0xbdac13b3	-0.08402195
53	0x3d0b34dc	0.033985958
54	0x3d059f6f	0.03262275
55	0x3cc94b33	0.02457199
56	0x3d8f7564	0.07004812
57	0x3decd909	0.11564834
58	0xbd87e73d	-0.06635902
59	0xbd8b471b	-0.06800672
60	0xbdb5c378	-0.08875173
61	0x3c3aacd9	0.011393749
62	0xbc496da2	-0.012294205
63	0xbd2dc940	-0.042428255
64	0x3c81b73b	0.015834441
65	0xbcf3c0c7	-0.02975501
66	0xbd53af16	-0.051680647
67	0xbda39e02	-0.07989122
68	0xbb8cab9e	-0.0042929193
69	0x3d7ce6e5	0.061743636
70	0xbcc9ff9a	-0.024658013
71	0xbce13329	-0.027490215
72	0xbd25e935	-0.040505607
73	0x3d8d1007	0.068878226
74	0xbd13acec	-0.036053583
75	0xbb87d9e0	-0.004145846
76	0x3cacdb85	0.021100769
77	0xbd7fc606	-0.06244471
78	0xbc92faed	-0.017941916
79	0xbd451a21	-0.04812062
80	0xbc934f9c	-0.017982297
81	0x3d919b2e	0.07109676
82	0xbd9213d4	-0.07132688
83	0x3c7035d5	0.014661272
84	0x3d79930e	0.060931258
85	0x3a21bc60	0.00061697327
86	0x3d84d114	0.06485191
87	0x3b416294	0.002950822
88	0x3d076c0f	0.033062037
89	0x3cfdab3d	0.030965442
90	0xbd5fd63f	-0.05464768
91	0x3c9f15f2	0.019419644
92	0x3c9d3d42	0.019194249
93	0x3d89b72a	0.06724389
94	0x3c2a4fa5	0.010394965
95	0xbb013a3b	-0.0019718546
96	0x3d731f46	0.059355997
97	0x3d30750c	0.043080375
98	0x3ce27832	0.027645204
99	0xbcd09abe	-0.025464412
100	0x3c31a650	0.010842875
101	0xbd00728b	-0.031359237
102	0xbdd91def	-0.106014125
103	0xbceba3d1	-0.028764637
104	0x3c9569ac	0.018238865
105	0x3cd129aa	0.025532562
106	0x3c2ceea3	0.010554942
107	0xbd6bf133	-0.057603072
108	0xbce66c5a	-0.028127838
109	0x3ce32032	0.027725313
110	0x3d4ee313	0.050509524
111	0xbc9b13da	-0.018930364
112	0x3d1be352	0.038058586
113	0x3d10f2cc	0.0353878
114	0xbd2864e9	-0.04111186
115	0xbd3d9f32	-0.0462944
116	0x3cbb754d	0.022883082
117	0x3ce7b910	0.028286487
118	0xbd9ba2bd	-0.07599399
119	0x3d780537	0.06055185
120	0xbdb67413	-0.08908858
121	0xbce63fc0	-0.02810657
122	0xbd98db11	-0.074636586
123	0x3d509257	0.05092081
124	0x3d3a27ce	0.045448117
125	0xbdb8eaac	-0.09029135
126	0xbc3661ee	-0.011131747
127	0xbc3dc672	-0.011582958
128	0xbdfc01b8	-0.12305015
129	0xbc051164	-0.008121822
130	0x3c8b218b	0.016983768
131	0x3c74ceed	0.014941913
132	0x3c661856	0.014043888
133	0xbc92b002	-0.017906193
134	0xbd1a8f91	-0.03773457
135	0xbc5ae557	-0.013360343
136	0xbd473a43	-0.048639547
137	0x3ca6b022	0.020347659
138	0x3dcbe882	0.09956457
139	0xbdb87a06	-0.09007649
140	0x3cf912e2	0.030404512
141	0x3d0bb85e	0.034111373
142	0x3ca566c7	0.02019061
143	0x3cf3c6c0	0.029757857
144	0xbd5af719	-0.053458307
145	0x3d194e30	0.03742808
146	0xbce93986	-0.028469812
147	0x3d372447	0.04471233
148	0xbd038de2	-0.032117732
149	0xbd8b0f75	-0.067900576
150	0x3d0a1362	0.03370989
151	0x3cecbb0e	0.028897788
152	0x3d85eeb6	0.06539671
153	0x3d18ca32	0.037302203
154	0x3d76612c	0.060151264
155	0x3d23538f	0.03987461
156	0xbd84ca7b	-0.064839326
157	0x3dbf5490	0.09342301
158	0x3d45c892	0.048286982
159	0x3d400a58	0.046884865
160	0x3d9074f9	0.07053561
161	0x3d11bce6	0.03558054
162	0xbc63463c	-0.013871726
163	0xbdad2d0b	-0.08455857
164	0x3d3e0b60	0.046397567
165	0x3cdc2a3b	0.026875606
166	0x3d1017d2	0.035178967
167	0x3d6425ae	0.055699997
168	0x3d9578d3	0.07298436
169	0xbd7fd728	-0.06246105
170	0xbc79e8cb	-0.015253256
171	0x3d654625	0.0559751
172	0x3c33d2c5	0.010975544
173	0xbc9234b2	-0.017847393
174	0xbd99db1a	-0.075124934
175	0x3cc77e4b	0.024352213
176	0x3d4491ff	0.047990795
177	0xbcebd797	-0.028789325
178	0xbd685f52	-0.05673153
179	0x3d2a2f45	0.041548986
180	0xbd45c35e	-0.04828202
181	0xbc22e35f	-0.009941905
182	0xbd089a20	-0.03335011
183	0xbd3a077d	-0.045417298
184	0x3d41653e	0.047215693
185	0x3d25ed6d	0.04050963
186	0x3c9b9d45	0.01899589
187	0xbdac4973	-0.08412447
188	0xbddedb44	-0.10881665
189	0xbaf74ee8	-0.001886812
190	0x3d98d5fa	0.07462688
191	0x3ccad857	0.024761362
192	0xbd2f6247	-0.042818334
193	0xbcb1643d	-0.021654243
194	0xbd3e5129	-0.04646412
195	0xbc17cee7	-0.009265638
196	0xbd0b4aff	-0.03400707
197	0xbd8c992b	-0.06865152
198	0x3caa091d	0.020756299
199	0x3ce98ce8	0.028509572
200	0xbcf460e4	-0.029831357
201	0x3d66612e	0.05624502
202	0x3de3074b	0.110853754
203	0xbdae9647	-0.08524757
204	0xbcb6bdb7	-0.02230726
205	0xbb9e9a36	-0.0048401607
206	0x3cd53b20	0.02602917
207	0x3c17ae30	0.009257838
208	0xbc8e424e	-0.0173656
209	0xbdd1fb08	-0.102529585
210	0x3d2dc367	0.04242268
211	0x3d00a2b7	0.031405177
212	0xbdb22649	-0.086987086
213	0x3ddea937	0.10872119
214	0x3d1fb21a	0.03898821
215	0x3d8d127d	0.06888292
216	0x3dc13df7	0.09435647
217	0xbd085e27	-0.033292916
218	0x3d8b1fcd	0.06793175
219	0xbdd92778	-0.10603231
220	0xbdcb1e44	-0.09917882
221	0xbd15335d	-0.036425937
222	0x3d2befc8	0.04197672
223	0x3d3a8828	0.045540005
224	0xbdabd9d5	-0.083911575
225	0xbb9f7275	-0.0048659393
226	0x3a11ec77	0.0005566547
227	0xbd0fa634	-0.035070613
228	0x3cd39de8	0.025832132
229	0x3d2ac60f	0.04169279
230	0x3b1db242	0.0024062549
231	0x3c8f6a63	0.017506784
232	0x3cd6dba5	0.026227782
233	0xbca32492	-0.019914899
234	0x3c6cc71e	0.01445177
235	0x3dc7fd5f	0.097651236
236	0xbda7fa74	-0.08202067
237	0xbd85cb8d	-0.06532965
238	0x3cd583e4	0.026063867
239	0xbd8772b8	-0.06613678
240	0x3d430dd2	0.047620602
241	0xbd250c53	-0.040294956
242	0xbc278d09	-0.0102264965
243	0xbce932ab	-0.028466543
244	0xbdfa0793	-0.12208476
245	0xbda53e3c	-0.08068511
246	0xbd1de5bc	-0.03854917
247	0xbbc5ae19	-0.006032717
248	0xbd1bf178	-0.03807208
249	0xbb8f2555	-0.004368464
250	0xbd88114f	-0.06643926
251	0x3d2135a2	0.03935779
252	0xbd3fad23	-0.046795975
253	0xbd6b68ac	-0.05747287
254	0xbc259b72	-0.010107862
255	0x3de38a6f	0.111103885
