My-RL/Good Models/custom_ppo_and_stride_reward.pt (torch, 346955 bytes, 7 tensors)

shared.0.weight f4 [256, 60]
00000000: 43a8 31bd f8bb acbd 284f 8fbd f4e2 893d
00000010: 410d 453d 13dd d93d 0af0 f9bd 8c6b 00be
00000020: dd29 533d 98d2 f73c e717 b4bd 6556 33bd
00000030: 550a 44bd 9eb9 53bd 5b6b 37bd fef4 6b3d
00000040: 85f1 91bc 423d 113e b9e1 78bd e089 acbd
00000050: 2b6c 3fbb 3845 04bc bc08 873c 154e 5cbc
00000060: 583a e9bd 9301 923d 712f 223b 1653 be3d
00000070: c91f afbd 3a36 8b3d 4fa1 b53d e9e7 213e
00000080: dc50 043c 70fc e33d 6f2a 7a3d b5e4 f23d
00000090: 327e dfbd 0889 9dbd 5612 7a3d 0cc5 b73d
000000a0: a408 ba3d be9d bc3c 0635 fbbd f7ca ca3c
000000b0: ddfd bfbd 0598 bc3d 7922 e03d 0d8e 22be
000000c0: e37e d5bd aeb4 f3bd 54f4 f53d 7a19 29bd
000000d0: 5027 60bb d8f2 0abe 6694 afbc b18c a1bd
000000e0: 555d b0bd 2eb9 2bbe 17f8 c1bd 1c32 c2bd
000000f0: ab40 9c3c a8fc 3cbc cb5b 4ebd 5996 b4bd
00000100: 0093 4c3d d2a1 783d e783 3fbe c0fa 31bd
00000110: 35f4 abbd 78fb 3fbd fa5f 0b3e 3a97 f13c
00000120: bcc3 6bbd 3eb1 753d 61d1 e0bd 6ca9 2e3b
00000130: c8e0 e4bc e9c9 cc3b 5864 a8bd 850b d33c
00000140: 1370 903d fb2e 2cbd aa62 963d 2af3 17bc
00000150: 4ce0 9a3c e98d a0bd 1fc4 babd 3f7b dfbc
00000160: 832f 383c 8587 32bd 5888 e3bd 5a27 053e
00000170: 0769 173d 1b3a 643d 3a85 6d3d eb2e c93d
00000180: 467b 9cbd 8f71 bcbd 1e8f 9f3c 87b1 823c
00000190: 1ab8 cf3d 3417 babd d7ff 953d 5212 95bd
000001a0: 780e a63d 8de8 ef3d 2eb1 3d3d 92d1 a63d
000001b0: 572e 563d 09cf bebd 7dde 033e 1c7e dd3d
000001c0: 43e4 c33c 8308 323d 559c c0bd 8800 74bd
000001d0: f0a9 213d fc6e 15be 4a3a 3a3a 3a03 e3bd
000001e0: c9af 7a3d 23cd ad3d 8456 5abd b7c1 0a3d
000001f0: b25d a9bc dbf3 c63d 7fb9 d83c d817 57bd
00000200: 0d3f b33d 9c8c fe3b 3b99 5ebc 3949 8cbd
00000210: 6854 ec3d 666b 06bd 2db2 0b3d 1a00 d33b
00000220: 70c2 e2bd b1e0 07bd 98be 04bd 42f7 15bc
00000230: 9777 c6bd 0c72 0e3e edf0 9a3d 4371 3a3d
00000240: c6fd 8a3d 98a7 12bd 9d91 3cbd d0eb 10bd
00000250: 606b f23d 4df6 c0bd 32a8 053d 2ca4 c83c
00000260: 5c50 ff3c 8455 37bd 5918 2e3d a454 90bd
00000270: 6ff9 a33d 9d6a 053d 5bd2 41bd d970 b2bc
00000280: d41e f83d c8a9 ccbc 75e3 9cbd c0c6 c3bd
00000290: 320d 03be bb7f 2fbc b874 6e3d 87bb 18bd
000002a0: d62d 7e3c 9948 683d 5960 0b3e 5e84 623d
000002b0: ee7f 2d3b 8dfa 8b3c 88b6 053c 0c47 8c3c
000002c0: 9e79 78bd d0e2 80bd 247c 023e 5657 b83d
000002d0: 295b 483d 3e54 3bbc 330a b83b 1e84 7e3d
000002e0: bfb4 d7bd 990f 833c d035 05be 7dbe b43d
000002f0: 42f7 d13d b481 09be 50e2 b3bd 9309 733d
00000300: a480 673d 9835 79bd 290e a4bd e366 e23c
00000310: 8080 9c3d ca19 053e fd73 e33d bae2 acbd
00000320: f056 be3d 53f6 013d f795 90bc cd9a 423a
00000330: b2d9 f7bd 2030 333d aca1 db3c 5e6c e9bd
00000340: 3b4d c9bd 6bc1 cf3d 2408 38bd b2e2 cabd
00000350: df34 653b 82e9 423d aca8 113d 9ad1 003d
00000360: f7ea fb3d e00d b93d 1070 4c3d f0af 64bb
00000370: cad2 0b3e 182d b5bd 25c3 24bd 00c1 adbd
00000380: e9a2 c23c a107 80bd 923a ebbd 8276 88bd
00000390: 4230 0b3e b880 963c f040 d13d 1f40 55bd
000003a0: 1067 3ebd c038 05be e36c fc3d 295d bd3d
000003b0: 0b38 dbbb 7e77 ae3d 46b5 c83b 945c 21bd
000003c0: 9e8b fb3d 33f2 d83d 590c 2a3d 07b8 e6bd
000003d0: 9f2d 673d e717 6f3d 1b1a 103d a863 363d
000003e0: c27f 19bd 5f68 54bc 79b8 df3d 150b 723c
000003f0: 2114 9e3d 010a 593d 0e11 6d3c ddd7 b33d
-0.043373358 -0.0843429 -0.0699752 0.06732741 0.048108343 0.1063787 -0.12203987 -0.12541026
0.051553596 0.030251786 -0.087936215 -0.043783564 -0.047861416 -0.05169069 -0.044780117 0.05760669
-0.01781536 0.14183524 -0.06076214 -0.08424735 -0.002920876 -0.008073144 0.016483657 -0.013446351
-0.11388081 0.071292065 0.0024747516 0.09293191 -0.085509844 0.06797452 0.08868658 0.15811123
0.008075919 0.11132133 0.061075624 0.11860029 -0.10912742 -0.07692152 0.061052643 0.089731306
0.09083679 0.023024436 -0.12265973 0.024754984 -0.093745925 0.09208683 0.10944075 -0.158745
-0.10424592 -0.11899696 0.120094925 -0.041284062 -0.003420312 -0.135692 -0.021433067 -0.07888163
-0.08611552 -0.16769859 -0.094711475 -0.09482214 0.019073805 -0.011534847 -0.05038051 -0.08817739
0.049944878 0.0607012 -0.1870266 -0.043452024 -0.08396188 -0.04687068 0.13610831 0.029491056
-0.057559714 0.059983484 -0.10977436 0.0026651276 -0.027939215 0.0062496555 -0.08222264 0.025762329
0.070526265 -0.04203699 0.073430374 -0.009274283 0.018905781 -0.07839567 -0.091194384 -0.027280448
0.011241796 -0.043586273 -0.1110999 0.13003293 0.036965396 0.055719476 0.057988383 0.09823402
-0.076407 -0.09201347 0.019477423 0.015953792 0.101425365 -0.09086457 0.07324188 -0.07278885
0.081082284 0.117142774 0.04631155 0.08145441 0.052290287 -0.093168326 0.12877841 0.10815069
0.023912555 0.04346515 -0.09404818 -0.05957082 0.039468706 -0.14593118 0.00071040227 -0.110846
0.061202798 0.08486392 -0.053305164 0.033876147 -0.02067456 0.097144805 0.026455639 -0.052512974
0.0875226 0.007768227 -0.013586338 -0.068499036 0.11539537 -0.032817267 0.03410547 0.006439221
-0.11072242 -0.033173267 -0.032408327 -0.009153189 -0.09690779 0.13910693 0.07565484 0.04551817
0.06786685 -0.03580436 -0.046037305 -0.03538114 0.118368864 -0.09421978 0.032631107 0.024492346
0.031166248 -0.04475929 0.04250369 -0.07047394 0.0800656 0.032572377 -0.04731975 -0.021782326
0.12115255 -0.024983302 -0.076605715 -0.09559393 -0.12798002 -0.010711606 0.05821678 -0.037288215
0.015513858 0.05670986 0.13610972 0.055302016 0.0026473957 0.017087245 0.008161195 0.017123722
-0.06066286 -0.06293261 0.12742668 0.09001033 0.048915062 -0.011433659 0.00561645 0.062137716
-0.105325215 0.015998648 -0.13008809 0.08825395 0.10252239 -0.13428384 -0.087834 0.059335303
0.056519166 -0.060842127 -0.08010513 0.02763695 0.07641697 0.12998119 0.111061074 -0.08441682
0.09293926 0.031729054 -0.017649634 0.000742358 -0.12102069 0.043747067 0.02681049 -0.113976225
-0.09829184 0.101443134 -0.04492964 -0.0990652 0.003497414 0.04758597 0.03556125 0.03144989
0.12300675 0.090358496 0.04991156 -0.0034894906 0.13654628 -0.088464916 -0.040225167 -0.084840775
0.023759322 -0.06251455 -0.11485781 -0.066632286 0.13592628 0.018371925 0.10217464 -0.052063104
-0.046485007 -0.1300993 0.12325456 0.092462845 -0.0066900305 0.08518885 0.006125125 -0.03939493
0.12282489 0.10593071 0.041515682 -0.11265569 0.056439992 0.058372404 0.035181146 0.044528633
-0.037475355 -0.012964337 0.10923857 0.01477315 0.07718683 0.052988056 0.014469398 0.08781407

shared.0.bias f4 [256]
00000000: 997d 7dbd 56ac de3d 5ada 9239 771d 883d
00000010: c413 873d 9f2a 003e 5c30 a0bd 874b 49bd
00000020: 5d51 c83d e1bf 593d 1c7f ec3c 51ed bcbd
00000030: 20dd 7dbc 58a0 7d3d ea6d f0ba b0b9 ed3c
00000040: 5e35 a5bd 78f0 9d3d 9a3c fbbc 7d17 01bb
00000050: 80d2 013e 60d3 09bd f88b adbb e8d9 c6bc
00000060: bc23 9e3d 9b57 dfbc b38b b4bd d2ef f5bd
00000070: 1da6 533c c69d c0bd 3ba2 e8bd 5fb3 743d
00000080: 68d2 263d 4254 59bd c87e dc3c 9310 8d3d
00000090: ed3c 31bd f14f ab3d 0518 cb3d 9d1e e7bc
000000a0: 33af b0bd 8246 c93d f7cd e53d 22e4 afbd
000000b0: a29a 913c cf46 5cbd 21f6 82bd b2c8 e93d
000000c0: 296d 963c 89e8 eb3c 03f3 f6bb 5457 87bd
000000d0: f0b3 fd3d 5cc3 ccbd 2939 cd3d d66f d6bd
000000e0: 2bb9 29bd 85c7 fe3c 72a1 c53d 9b61 05be
000000f0: 9ae5 2c3d c052 ea3c 7ba2 ba3d 99c4 a83d
00000100: 1350 d0bd e96e cb3d cc4f 6d3d 8bbb 3a3b
00000110: 6f11 e53c b584 2eba 4305 223d 977c 9b3c
00000120: 00ca 88bd 8a7b fe3d 41b8 a5bd 186b c5bc
00000130: 7f7f 01be 7ad2 d43c b49d 443d bc71 eabd
00000140: 49a7 8abd 0a8c 2cbd bcde 6bbc 1f81 643b
00000150: 979b ebbd ae54 08be 9da1 a9bc c52e c8bd
00000160: 549e d63d 3240 0bbd 6d78 763d 6e3c 1f3c
00000170: 61fc d63d db5c 133d 4cc0 e3bd e294 33bd
00000180: c6a9 ef3c f924 843d 99fb 87bd 5cba 753d
00000190: 7605 1c3c cb19 be3a 8058 213c 5d01 bbbd
000001a0: d5b3 c4bd d7d6 54bd 1608 8b3d 09e9 9d3d
000001b0: e499 393d 1248 06be 8261 3dbd cd6d f4bd
000001c0: 1c2e 1f3d 93a7 a2bd 7c4b 603d 4c55 31bd
000001d0: 9747 6c3d 6104 f43c fe67 6a3d 1611 acbd
000001e0: 0ef8 a1bd 3d2b 57bd 6201 24bd b8b8 cfbd
000001f0: b3d0 c63d e85b 433d a339 133c 2aa5 443d
00000200: 4103 b33d cefd 9f3d b4cb f93d 42ce fbbc
00000210: f784 d8bd 8012 4b3d 6e0f b23d 2702 543d
00000220: c61d e03d ae5f cdbd 00bd da3d 1008 f7bb
00000230: 46e5 90bd 2943 4b3d c25c 7c3d 6dd5 a5bd
00000240: 5f8d 57bd e253 0b3e 978e a13d 49d3 db3d
00000250: f8e8 8e3d 5cb4 6fbd fb67 82bd 4ee9 4f3c
00000260: cf66 5bbd 943e cb3d 8147 74bd e381 fdbd
00000270: 45e6 a83d e9a6 2a3d cb0a 89bd f63a c7bd
00000280: ac2f c7bc 8a3a dd3c 9d42 e8bd 08fc debc
00000290: 4609 a63c d493 29bd a254 b43d 456d 713c
000002a0: 83b6 01be 6960 48bb a0dc 5b3d 4da4 61bd
000002b0: aa7c ea3d f61e 9e3b 756d 073c 5a6d e33d
000002c0: f83c 63bd 936c e9bd b783 493d ec83 693d
000002d0: 7943 e2bd 3596 13bc ed8e 32bd 46f3 1d3d
000002e0: 5e6e d13d cd59 b93d 2a84 d1bd 5dbe 393d
000002f0: 4e51 9dbc 634f b6bd 2eb3 b6bd af00 21bc
00000300: 3316 a53d d73f c2bd 8f15 f63d eb29 843d
00000310: d0e6 34bd 5358 663d bacc 98bd 6531 bd3d
00000320: 767a 79bb b8c9 9ebd 152f 43bd 7719 eb3d
00000330: 8210 b4bd 612e b53d 4337 5ebd 29cd 1cbd
00000340: fc8f 4bbd 11df 083d 0459 3abd 74b4 c43d
00000350: 7b1c a1bd 19e2 a2bc 9fed ae3d c83b 323c
00000360: 70cf 733c cee9 0c3d a2ca ddbc 437c d7bd
00000370: 1c0b 14bd 17ef 633d 5076 b73c eab5 ca3a
00000380: d6aa 9e3d aa79 d73d d170 423d 9733 863b
00000390: 65e6 12bd f4ea b3bc 9a7b 2a3c 823a 0e3d
000003a0: 7ac5 d5bd 05ce 543c 8d73 433d febf 453c
000003b0: 4b94 613d 9aa7 75bc 29ea e6bc e9e0 943d
000003c0: fa91 a2bb f745 473d e9a1 223c 9e46 b7bc
000003d0: e2d2 913d cceb c2bc b90c d7bd 6c15 89bd
000003e0: 9521 c73c cf26 013e 1a94 7e3d afe3 933d
000003f0: 28e8 eb3d 411c d03d 700a 8c3b f68d 49bd
-0.061887357 0.10872714 0.00028009975 0.06646245 0.06595567 0.12516259 -0.07821724 -0.049144294
0.09781144 0.053161506 0.028869204 -0.09224952 -0.015494615 0.061920494 -0.0018343304 0.029019207
-0.080668196 0.077118814 -0.030668546 -0.0019697838 0.12677956 -0.03364885 -0.0052962266 -0.024273828
0.077216595 -0.027263453 -0.08815708 -0.12008633 0.012918022 -0.09405093 -0.11359068 0.059741374
0.040728003 -0.05305887 0.026915923 0.06887927 -0.043270994 0.08364857 0.09916691 -0.02821284
-0.086271666 0.098279014 0.11220925 -0.08588435 0.01777393 -0.053778466 -0.063946016 0.11415233
0.018362598 0.028797405 -0.0075362935 -0.066084534 0.12387836 -0.09998199 0.10020668 -0.1047055
-0.041436356 0.031100998 0.09649934 -0.13025515 0.042211153 0.028603911 0.09113022 0.08240623
-0.10171523 0.09933264 0.05793743 0.0028493132 0.027962415 -0.0006657348 0.0395558 0.018980308
-0.066791534 0.12425907 -0.08091784 -0.024098918 -0.12646292 0.02597927 0.04800196 -0.11447474
-0.06770188 -0.04212574 -0.014396366 0.0034867001 -0.11504286 -0.13313553 -0.020706946 -0.097745456
0.104794174 -0.03399677 0.06017344 0.009718997 0.10497356 0.035977226 -0.11120662 -0.043843158
0.029255759 0.064523645 -0.06639785 0.05999218 0.009522786 0.0014503537 0.00984776 -0.091311194
-0.09604613 -0.0519627 0.06788652 0.077104636 0.045312777 -0.1311343 -0.04623557 -0.11935005
0.038862333 -0.079421185 0.054759488 -0.043294236 0.05768546 0.029787244 0.05722808 -0.084016964
-0.07908641 -0.05253147 -0.04004038 -0.10142654 0.09707775 0.04769507 0.00898591 0.048009075
0.08740855 0.07812081 0.121970564 -0.030738 -0.10572236 0.04957819 0.08694349 0.051759865
0.10943179 -0.10028015 0.1068058 -0.007538803 -0.070749804 0.049624596 0.0616119 -0.08097348
-0.052625056 0.13606218 0.07888525 0.10733659 0.06978029 -0.058521613 -0.06367489 0.0126899015
-0.053564843 0.09924045 -0.059638504 -0.123782896 0.082470454 0.041663084 -0.06691512 -0.09728043
-0.024314724 0.027005453 -0.113408305 -0.027219787 0.020268094 -0.041400746 0.08805205 0.014735525
-0.12667279 -0.0030575043 0.0536772 -0.05508833 0.11449559 0.004825468 0.008265843 0.111048415
-0.055478066 -0.11397662 0.04919788 0.057010576 -0.11048026 -0.00900798 -0.043593336 0.03856208
0.10226129 0.09050331 -0.102302864 0.04534756 -0.019203808 -0.089018606 -0.089208946 -0.009826823
0.08060875 -0.09484833 0.12015831 0.06453308 -0.044165432 0.056236576 -0.074609235 0.09237937
-0.0038067377 -0.077533185 -0.047652323 0.114794664 -0.08792211 0.08846737 -0.05425192 -0.038281593
-0.04969786 0.033415858 -0.04549505 0.09604731 -0.0786676 -0.019883202 0.085414164 0.010878511
0.014881 0.03440266 -0.027074162 -0.10521748 -0.036143407 0.055647936 0.022395283 0.0015465592
0.07747428 0.105212525 0.04747087 0.0040955055 -0.035864253 -0.02196262 0.0104054455 0.034723766
-0.10438056 0.012988572 0.04771762 0.0120697 0.055073064 -0.014993573 -0.028187828 0.07269461
-0.0049612494 0.048650708 0.009926298 -0.02237254 0.07120301 -0.023794077 -0.105004735 -0.06693539
0.024308005 0.1261246 0.06215296 0.072211616 0.1151889 0.10161639 0.004273705 -0.04920765

shared.2.weight f4 [256, 256]
00000000: 17ee 42bd 1814 6dbc bacf 13bc 53a4 d53b
00000010: fba5 76bd 8d86 ac3d 892b 3abc 11f2 273d
00000020: 7d46 503d 49be 3ebd ca07 a23b cc93 a93d
00000030: 75de dcbc 8787 e23c a9e8 1bbd 36e8 79bd
00000040: da8e 1a3d 3f74 853c 52f8 63bd 4e24 f43c
00000050: 8c42 923c cbc7 fe3c ebff 7cbc e282 5abd
00000060: 9fac a53c fedd 85bc e7c6 d33c 762c 133d
00000070: 8a39 4c3d 3471 2abc 4c20 76bd 59ea 89bb
00000080: 1e2e 483d 2f4b d73b 5aa5 a2bd 4307 dbbc
00000090: 1841 243d ba23 5cbd 8dca 92bd 148c cc3c
000000a0: 75e6 013b ee82 663d 9690 503b 7bd8 893c
000000b0: 95f5 44bd 6970 22bd c02e 28bd c03b 16bc
000000c0: c3a3 8bbc 7e65 43bd 2fc3 573d b35a 23bd
000000d0: 51c7 4f3d 293c 7cbd 7990 69bc 578a 13bd
000000e0: ab7f 723c 2125 85bd 7c1d 643c ffd2 943c
000000f0: ddd8 203c d88c 25bd 74e0 a23b a84a 973c
00000100: 420a 3e3c 4697 c6bd d70e 8e3c 426f 9bbc
00000110: b015 523b 5bc4 093d b801 89bd 793f cbbb
00000120: 125f 95bc 0751 933c 5278 2f3b 70e9 f6b9
00000130: 7a42 8f3b a5d3 093c fa12 413d 0e32 a03d
00000140: 64ab 8dbd 4aa1 393c 032b 103c 92ee 6f3d
00000150: 93b9 1d3c 2919 843d 2fd9 303d 2cb2 953d
00000160: bba8 3c3c f792 b0bc 97c1 893d 9e59 853d
00000170: 8390 e6bc 0584 ac3d 1946 87bd b584 af3c
00000180: 8f88 8d3d b87d 93bc 6280 ff3b 3c8d e63c
00000190: bd92 95bc b8be 38bc 6bbf 8d3c e170 5dbc
000001a0: 4629 ca3c 80db 3e3d 4867 2a3d 81c4 373d
000001b0: ba0b b8bc 58c4 7f3c 1963 273d 6fc0 25bc
000001c0: 3915 873d 80bd ac3c 9f33 24bd f209 613c
000001d0: c0bd 3f3d 077b 903d 20ba 823d 16e8 8a3c
000001e0: 5fd2 793d 9113 093d 0b2a 133d 5546 e53c
000001f0: 4bc3 9c3d f651 db3c 3c92 60bd 8e33 053d
00000200: 8859 253c 77c8 61bc 9e69 9b3d 4a36 e2bd
00000210: 4039 21bd 0af8 b63c 5016 453d f9a3 3ebd
00000220: 345f 46bd 72e0 44bd 9846 313c 4196 05bd
00000230: 8fcf 1dbd 05de 24bd 713d 44bd 66fb 443d
00000240: 8491 213d d5c0 d8bd cba6 2bbd e13a 2c3c
00000250: 4a15 11bb 941c 88bd f045 e63c a0ea 833d
00000260: 2789 f63c 96fc 40bd 2bb0 2fbd 569d 74bd
00000270: 031f 063d 3898 63bc 38fe babb 873a 1abd
00000280: d282 863d 910b ff3c c1c7 4bbd 2e14 a43d
00000290: 87c0 f83b 5083 f7bc 5282 87bd 1b48 b6bd
000002a0: cf3e 853c afab abbc b5a8 d43c 75fd d93c
000002b0: b022 9a3c 64eb c03c af4c 683d e019 45bd
000002c0: affe 9fbc 41aa 46bd 632b c63a dc7e c7bc
000002d0: 7a85 413d 013a b9bb 1703 683d fc8b 1fbc
000002e0: cdb1 bf3b 03a2 37bb 3776 86bd 9c45 39bd
000002f0: fff7 7abd 2930 c63c 8ae4 d03b d87f a23c
00000300: 2234 10bd ede9 94bc 6590 a4bd cc69 7e3c
00000310: 3514 c9bc 3d62 183c 3a74 483b 1a1a e4bc
00000320: 628c 903d db52 b43c 9452 4b3d da6c 5e3d
00000330: 080f 4f3d a2c8 40bd 66e6 b7bc a006 1abc
00000340: 2a1f 2b3d 8c02 3b3c 0e95 5bbd 5c94 27bd
00000350: 78fe e43c 93df ef3c 4d21 6139 b780 ad3c
00000360: e539 1fbd f3ce 5e3d 7c88 183b 78e5 213c
00000370: b476 1b3d 9bf4 4ebc 479a 1dbd 7de9 0f3b
00000380: 9d2b 573d 27da c33c a0da 05bb bacd 683c
00000390: 593e 423b d5d0 93bd f1d9 04bd 01fa 1b3d
000003a0: 4796 23ba c478 2abd f51f 4bbd 44d4 c2bc
000003b0: bcb6 d7ba 051b 6abc 794d 9b3c ebf6 91bc
000003c0: adb2 58bd d67d 90bc 91e5 53bd 49f2 b2bb
000003d0: 0c7f 01bd 9e92 d33b 88fa 98bc 7aba 57bd
000003e0: 9ab2 593d 32e4 d43b 3a1b 093d 338b 68bd
000003f0: d602 4a3d f912 e0bc 5f85 323d c170 74bd
-0.04759034 -0.014470123 -0.009021694 0.006519833 -0.060216885 0.08424101 -0.011362919 0.041002337
0.050848473 -0.04656819 0.004944776 0.08280143 -0.026961545 0.027652515 -0.03806368 -0.06101247
0.03773389 0.016290782 -0.05565674 0.029802468 0.017853998 0.031101128 -0.015441875 -0.053347476
0.020223914 -0.016341206 0.02585168 0.035931073 0.04985956 -0.010402966 -0.060089394 -0.0042088446
0.048872106 0.006570242 -0.079416946 -0.026736861 0.04010114 -0.05374501 -0.0716754 0.024969138
0.00198212 0.056277208 0.0031824461 0.016826859 -0.048085768 -0.039657984 -0.04106021 -0.009169519
-0.017045861 -0.047704212 0.052676376 -0.03988142 0.050727192 -0.06158081 -0.014255636 -0.036020603
0.014800946 -0.065012224 0.013923045 0.018167017 0.009817329 -0.040417522 0.0049706046 0.018468216
0.011599125 -0.09696822 0.01734106 -0.01897395 0.0032056384 0.033634525 -0.06689781 -0.006202635
-0.01823381 0.017982973 0.0026774597 -0.000470947 0.0043719383 0.008412276 0.047137238 0.07822047
-0.06917456 0.011329958 0.008799317 0.058577128 0.009626764 0.064501114 0.043175872 0.07309374
0.011514838 -0.021554453 0.067263775 0.06511234 -0.02814508 0.08423618 -0.06605167 0.021425584
0.06910812 -0.018004283 0.007797287 0.028143518 -0.018258447 -0.01127594 0.01730319 -0.013515682
0.024677884 0.04659605 0.041602403 0.044865135 -0.02246653 0.015610777 0.04086599 -0.0101166805
0.06595845 0.021086454 -0.040088292 0.013735281 0.04681182 0.070547156 0.06383157 0.01695637
0.06099164 0.033465926 0.035928767 0.027987638 0.07654437 0.02677248 -0.05482696 0.03251987
0.010092147 -0.013780705 0.07588504 -0.11045511 -0.03936124 0.022335071 0.048116982 -0.046543095
-0.048430637 -0.04806561 0.0108200535 -0.032613996 -0.03852802 -0.040250797 -0.047910158 0.048091315
0.039445415 -0.10583655 -0.041907113 0.010512085 -0.0022137933 -0.06646076 0.02810952 0.064412355
0.030094696 -0.047115885 -0.042892616 -0.05972036 0.03274442 -0.013891272 -0.005706575 -0.037653472
0.06567921 0.031133445 -0.049751047 0.080116615 0.0075913104 -0.030213982 -0.066166535 -0.08900472
0.016265301 -0.020955889 0.025959352 0.026610116 0.018815368 0.023549743 0.056713756 -0.04812038
-0.019530622 -0.04850221 0.0015119131 -0.024352483 0.047246434 -0.0056526666 0.05664357 -0.009737965
0.005850053 -0.002802015 -0.065655164 -0.0452324 -0.061271664 0.024192886 0.0063749 0.019836351
-0.035205968 -0.01817795 -0.080353536 0.015528154 -0.024545768 0.009300766 0.0030586855 -0.027844477
0.07058026 0.022012165 0.0496393 0.054303028 0.050551444 -0.04706634 -0.02244873 -0.009400994
0.041777767 0.011414181 -0.053608947 -0.04091297 0.027953371 0.029281413 0.00021470078 0.02117954
-0.038873572 0.05439658 0.002327471 0.00988137 0.037955 -0.012631561 -0.03847721 0.0021959238
0.052531827 0.023907734 -0.00204245 0.014209205 0.0029639213 -0.07217566 -0.032434408 0.03808022
-0.00062403496 -0.041619077 -0.049591023 -0.023782857 -0.0016457657 -0.0142886685 0.01895784 -0.017817935
-0.052904774 -0.017638128 -0.051732603 -0.0054610115 -0.031615302 0.006456687 -0.01867415 -0.052668072
0.053148843 0.0064969296 0.03347323 -0.056773376 0.04931911 -0.027352797 0.043584224 -0.059677843

shared.2.bias f4 [256]
00000000: a23e 77bb aef2 483d e6b8 fbbc 67be 3bbd
00000010: e305 f1bc e651 25bd eda2 2f3d 0b81 0f3d
00000020: 20b7 363d a15e 24bd 0efe 0cbc fbd0 003d
00000030: ebd3 e03a 4cdd c1ba 6e94 603d cf89 043c
00000040: 1b96 ec3c 50ab 3e3c f208 083d 244e 783d
00000050: 6bbf 213d 6853 a53c 3f22 29bb 5a36 d33c
00000060: b637 68bd 2674 083d 3c0b 593d 01c1 0f3b
00000070: 7f06 0ebd e9d6 243d 59cd f63c d9e2 1d3d
00000080: 9e7b 253d 1512 713d c037 253d c5d5 273d
00000090: 7442 cd3c f326 1e3c dd7d 4bbd 3673 29bd
000000a0: 03d1 c3bc 0325 013d 059c 1d3d 638d 07bd
000000b0: 6aeb 5d3c f1f6 f8bc 45bf d1bc d89f 35bd
000000c0: c9da adbc 37e0 2dbc 9d20 f7bc 5480 343d
000000d0: 82a0 053c 7c40 023d 4083 5f3d d937 85bd
000000e0: 9cde ba3c 4220 4ebd 6a07 74bd f6d6 e73c
000000f0: 6e67 1b3d fc5a 323c 066e ff3c 6613 2c3d
00000100: 3396 ca3b 06b3 ff3c c5bb 823d f512 db3c
00000110: 2d6b 9e3c a302 503d 433b 5abd 9956 533c
00000120: aef3 20bd 3e16 a03b e8f8 a8bc 5830 e03c
00000130: 64c0 43bd b3f1 e13c 746c 41bd 2b12 72bd
00000140: 97e8 13bc 32ae 61bd d4ed 433d 0e05 72bd
00000150: 4f30 78bd 8f09 c93c 4f93 b33c 7b53 fd3c
00000160: 82f7 15bd 21bf 563d 00da b83c 2d7f 323c
00000170: 107f d83c d280 d6bc 8e8a 4cbb 090c 043d
00000180: b568 433d 835b d63c e966 f03b 7497 273d
00000190: d164 013d d287 25bb 3976 703d aa17 793b
000001a0: 8ebb 1e3d b26a 1c3d 773a 2d3d f479 10bd
000001b0: 09d2 4fbd 840e 003d ab50 5abc 6176 5b3d
000001c0: 51e7 22bd a459 50bd aa78 0fbd 2291 693d
000001d0: 2dcd 14bb 370e c4bc 7fa6 44bd 4b64 8bbd
000001e0: 95e8 263d 7370 5cbc e6a4 1bbd fb5c 74bd
000001f0: 04f1 6f3d 30e3 7fbd 60ae 3bbd 19e4 e93c
00000200: 8d26 6e3d 9f11 703d cfa7 1abd e17f f2bb
00000210: 01d4 1abd acc4 3c3c bebe 703d ca06 b23b
00000220: 4753 753d 7694 7f3d 0016 973d 54e3 22bc
00000230: 2680 973b 64cb bd3c 56a8 533b 66f1 f1bb
00000240: 4270 3abc 8923 683d 2568 0d3d 9de7 123c
00000250: c3ea 243d b7a8 35bd c156 323d 0a9f ecbb
00000260: 81f6 053d fcb5 d1bc 4d18 76bd c1ac 57bc
00000270: 2958 3cbc 6c4a 00bb fa2d 88bc d658 2b3d
00000280: c87e 963b 1d72 29bc 20bc 1cbd c678 80bd
00000290: 92c2 76bd 029d 113d e06b 5cbd 8ac1 263d
000002a0: 21b5 04bd 2e58 313d 6190 0b3d ee9c a5bb
000002b0: 0ab0 0f3d fbc9 43bc 2e91 d03a e36b ccbc
000002c0: d172 3e3c 1148 0a3d 0733 2e3c 04bf 173d
000002d0: 523b f7bc 453c dd3c 82a4 163d 0f41 dc3b
000002e0: ac9e 96bc f567 0abd 52a1 613d c2be eb3c
000002f0: b246 353d 0bd1 1fbd 702c 98bc 4a95 17bd
00000300: 463b 10bd 693f ac3c ac38 40bd 4062 483d
00000310: 0b3a 9a3d e0a9 8abd 6977 73bd 12f7 58bd
00000320: 0f81 c3bc ef84 3bbc 61d2 8e3c 2519 d93c
00000330: c2dd 143d eb90 e9bc e95a 37bc fbcb 023c
00000340: 56d7 47bd a01a 67bd 859e ae3c b00f 843b
00000350: 0ab2 85bd d27a 41bd 141e cbbc 3cf9 b73c
00000360: 6ba0 c43c 1b71 46bd 4b04 84bd 9fa4 013d
00000370: 7c4f 5d3b 9c30 f4bc e765 2a3d 8202 383d
00000380: 1970 983c 702e bcbc fdbf e83c 6941 fdbc
00000390: 1496 d13c 2654 e1bc 38d4 a73b ed93 8a3b
000003a0: 7c14 1ebd 07af 4a3d 90a7 24bc 29f3 8bbd
000003b0: f101 a9bc f434 8ebc ec5e 22bd 1d4f b8ba
000003c0: f9b1 c9bb fa2b 68bc deea e9bc c7e7 51bd
000003d0: 43a6 23bd 7e38 35bd 22d0 183d e2a7 713c
000003e0: 98cd fe3a 72a8 8b3d c252 6c3d 4558 9fbc
000003f0: 2c7d 833c 4b98 793c 4bd2 fdbb 4ed5 40bd
-0.003772654 0.049059562 -0.030727815 -0.04583588 -0.029421752 -0.040361308 0.042879988 0.035035174
0.044608235 -0.040129308 -0.008605493 0.0314493 0.0017153 -0.0014790683 0.054829054 0.008089497
0.02888017 0.011637524 0.033211656 0.060621396 0.03948919 0.020181373 -0.0025807766 0.025782753
-0.056693755 0.033313893 0.05298923 0.0021935108 -0.034674164 0.040244017 0.030127214 0.038546417
0.040401094 0.058855135 0.04033637 0.04097535 0.025056101 0.009652841 -0.04968058 -0.04136964
-0.023903375 0.031529438 0.03847887 -0.03309382 0.013544897 -0.030391188 -0.0256039 -0.044341892
-0.021222489 -0.010612539 -0.030166918 0.044067696 0.008155944 0.03179978 0.05456853 -0.06504793
0.022811227 -0.050323732 -0.059577383 0.028300744 0.037940435 0.01088595 0.031180393 0.042010687
0.006182456 0.031213295 0.063834704 0.026742438 0.019338215 0.050783765 -0.053279173 0.012899064
-0.03929489 0.004885464 -0.0206265 0.027366802 -0.0477909 0.027581071 -0.04722257 -0.059099358
-0.009027622 -0.055097766 0.047834232 -0.05908685 -0.060592946 0.02454069 0.021920828 0.030923596
-0.036612995 0.05242837 0.022564888 0.010894579 0.026427776 -0.026184473 -0.0031210515 0.03223804
0.04770728 0.026166683 0.0073364866 0.04091592 0.031590287 -0.0025257957 0.058706496 0.003800849
0.038753085 0.03818769 0.042292085 -0.035272554 -0.050737415 0.031263843 -0.013324897 0.05357969
-0.03977138 -0.050866738 -0.035027184 0.057023175 -0.0022705302 -0.02393256 -0.048010346 -0.06806239
0.04074915 -0.013454544 -0.037999056 -0.059658986 0.05857946 -0.062472522 -0.045820594 0.028551148
0.058142234 0.058610555 -0.03775769 -0.0074004983 -0.03779984 0.0115215 0.058775656 0.005432938
0.059893873 0.062397443 0.07377243 -0.009941895 0.004623431 0.023168273 0.003229638 -0.0073835133
-0.011379303 0.056674514 0.034523148 0.008966354 0.04026295 -0.044350352 0.043539766 -0.0072211074
0.032705788 -0.025599472 -0.06008177 -0.013163746 -0.011495628 -0.001957561 -0.016623486 0.041832767
0.00459275 -0.010342148 -0.038265347 -0.06273036 -0.06024415 0.035550125 -0.053813815 0.040711917
-0.0323993 0.043296985 0.034073237 -0.005054108 0.035079993 -0.011950011 0.0015912408 -0.024953788
0.011624054 0.033760134 0.010632283 0.0370474 -0.030179653 0.027006278 0.03677798 0.006721623
-0.018386208 -0.033790547 0.055085488 0.028777484 0.044256873 -0.03901772 -0.018575877 -0.037007608
-0.035212778 0.02102633 -0.046929047 0.048921824 0.07530602 -0.06770682 -0.05944005 -0.05297
-0.02386525 -0.011445268 0.0174343 0.026501248 0.036344297 -0.028511485 -0.011191108 0.007983203
-0.048789345 -0.056421876 0.021315822 0.0040301904 -0.06528099 -0.04723627 -0.024794616 0.022457711
0.024002274 -0.04844771 -0.06446131 0.031651136 0.00337693 -0.029808335 0.041601088 0.044924267
0.01860814 -0.022971362 0.02841186 -0.030914979 0.025584258 -0.027505945 0.005121734 0.00422906
-0.038593754 0.049483325 -0.010049716 -0.068334885 -0.020630809 -0.017359234 -0.039641306 -0.0014061664
-0.006155249 -0.014170641 -0.028554376 -0.05124643 -0.03995348 -0.04424333 0.037307866 0.014749499
0.0019439934 0.06819238 0.05769611 -0.01945127 0.016050898 0.015234063 -0.007746016 -0.047078423

policy_head.weight f4 [16, 256]
00000000: 90af 0cbd fc00 c13c 1826 403d 9450 0c3d
00000010: 3af1 ad3b 6e9c 47bd 07e3 89bc cacb 2abd
00000020: 372e e5bc 4f5e 2cbd 89b8 7dbb 53d4 1b3d
00000030: 3ae0 cb3c ac1f 943b 366a 70bd 07b9 ab3c
00000040: 603f 25bd 5f81 b73c e6d7 48bc a6fb ef3c
00000050: a6d7 393c 9012 c3bc e8be 203c 24b8 68bb
00000060: e2fb c7bc 27b0 223d 7703 4cbd 8606 2e3d
00000070: bbc1 4ebd 6200 583d 20fc 2f3d 2004 dc3c
00000080: 4fe0 3f3d a7dd 47bd 8413 1bbd d523 373d
00000090: 12f0 8d3c 3f91 62bd 5c62 87bc 5d1d 35bd
000000a0: 76ac 733c 0d1f 4cbd cfda c93c 0523 08bc
000000b0: 8a15 763d 065a e33c d034 0a3d c9fa 493c
000000c0: 4883 14bd 9056 3cbc 7872 973b 5fbf f9bc
000000d0: cc88 2cbc 027c e13c 5300 3abc 8008 f1bc
000000e0: 9b50 8cbc 96cc aa3c f2f2 22bd 2de5 6d3d
000000f0: 2b4b dfbc 289a e7ba aa11 cebc b66f 85bc
00000100: 11ec 2abc c592 e1bc d5a1 9fbc 6db0 bc3c
00000110: d6a5 953c 56e1 043d 19c4 523d 1e26 5b3d
00000120: a2d3 a2bc 5092 21bc ea98 b5bc 4a2f c8bb
00000130: f3a6 a73b 082b 74bc 5ccb 1b39 a339 153d
00000140: bd5b 513d 8e6a 23bd dbeb 08bd ee72 1abd
00000150: 38a3 6fbd db65 dfba 6cb1 223d 6371 0cbc
00000160: 5be7 17bd 7f02 dbbc 0f20 3c3d fc97 403d
00000170: da4a ea3b 77a7 493d 8ccc 0c3c c095 183d
00000180: 4bf3 e5bc c5dd af3c e874 29bc a85e fd3c
00000190: 3c51 2e3c 28db 523d 776f 0abd aa15 57bd
000001a0: 1b79 b83c 1bcb ecbc f962 10bd ea1e 64bd
000001b0: 7f45 bebc af37 5e3d 9e4b 83bc be58 b83c
000001c0: af4e 83bd 79ed 34bd 265f f63c 8819 0f3d
000001d0: 02c4 bf3b e8e9 59bd d461 223d c42b 97bc
000001e0: 2ed5 2fbd da08 823d da03 043b cf14 013c
000001f0: 7cc3 a2ba 6d58 1ebc b1ab c4bc 8715 763d
00000200: c23a 33bd fbce 24bd 6ace 81bc 975f 143c
00000210: 994a 69bb d8b5 2ebd 123f 0b3d c19d f53b
00000220: a13b 66bd 39c6 2e3d 52d7 b23c 5046 cf3c
00000230: 0f74 d23a 62f6 783d 687c 6cbb 8e41 9dbc
00000240: 1d58 423d a240 32bd 6392 593d cf15 dfbc
00000250: f78d 5d3d 0bbd 593c 6586 42bc af7a 923c
00000260: 985e 51bc 8fd2 fdbc dd17 e83c b718 71bd
00000270: 98e6 263d 919e 543d f2f5 5e3a 6cce 823c
00000280: a54f cf3c a4be 54bd 11cf 8a3c 7f5f 2abd
00000290: 3eae e1bc e170 87bb 73d9 93bc 2003 903c
000002a0: 34ac 893c 1608 8a3c 8248 d93c 5833 5abd
000002b0: 5582 92bb b348 f73c 2b45 6ebd 6676 c6bc
000002c0: 08a3 62bd edc1 bfbc d20e 6bbd 368d 6a3d
000002d0: 2656 103c 4e85 c83b 1ea6 303c f97c e03c
000002e0: ecb4 9ebb fac3 483d 048f d13c 3654 85bc
000002f0: 33e3 e1bc 1cab 49bd 45a4 57bd 5d11 58bc
00000300: 5800 f83c 6faa 61bd c78c f2bb e08f 973b
00000310: 71f6 2e3c 2a16 02bc 323b 23bd ad2e 7bbc
00000320: 6446 3abd bcdb 00bd d4d8 ac3c 5bc5 6b3d
00000330: a7a4 89ba a4ef 3d3c 3583 483d 304d 27bd
00000340: 003d 433d 9b4a 233d e737 bcbc 6cdd 03bc
00000350: 1728 79bd 0e84 64bd a8d2 0abd 69d0 553d
00000360: 27b8 1f3d f81d 1e3c c89f 1fbd 4219 e43c
00000370: f29f 253d 6e43 f2bc 71f1 813c 433b fa3c
00000380: 42a5 2d3d 4647 b73b 5d9b ac3c 0ce6 c53c
00000390: e18e 46bd f973 cabc a036 a9bc 1736 03bd
000003a0: 9d0d fbbb 86c1 2d3d 0c83 50bd 0eb4 27bc
000003b0: 3bfb 3dbd 88db 1c3c 07a5 ffbc a198 fdbb
000003c0: a8bc 4cbc ca48 cc3b 105b 1abd ede1 c63c
000003d0: 595f 1fbd b103 263c 918a 933c 2e68 fb3c
000003e0: e605 7cbb 3fc2 21bd 706a bf3c 4cf3 763d
000003f0: 95f2 3b3a b2b8 d33c 8c1d 273d f1c8 28bc
-0.034347117 0.02356004 0.04691133 0.034256533 0.0053082975 -0.048733167 -0.016831888 -0.041698255
-0.027976139 -0.042082127 -0.0038714728 0.038044285 0.024887193 0.004520377 -0.05869504 0.020962251
-0.040343642 0.022400556 -0.012258505 0.0292948 0.0113429185 -0.023812562 0.009811141 -0.0035510147
-0.0244121 0.039718773 -0.04980799 0.04248669 -0.050477725 0.05273474 0.042965055 0.026857436
0.046844777 -0.04879537 -0.03786041 0.044711906 0.017326389 -0.0553143 -0.016526394 -0.044217456
0.014872661 -0.0498343 0.024640469 -0.008309131 0.060079135 0.027752887 0.033741772 0.012327858
-0.036258012 -0.0114952475 0.0046218 -0.03048676 -0.010530662 0.027524952 -0.011352616 -0.029422998
-0.01712828 0.020849507 -0.039782472 0.058079887 -0.027257523 -0.0017669844 -0.025154907 -0.01628862
-0.010432259 -0.027535805 -0.019486347 0.023033345 0.018267553 0.03244146 0.051456545 0.05350315
-0.019876305 -0.009861544 -0.022167642 -0.006109153 0.0051163374 -0.014902838 0.00014857709 0.03643192
0.05111288 -0.03989654 -0.033428054 -0.03770726 -0.058505267 -0.0017043905 0.039719984 -0.008571955
-0.037085872 -0.026734589 0.04592901 0.047019944 0.0071500363 0.049231973 0.00859369 0.037252188
-0.028070113 0.021468053 -0.010342814 0.030928925 0.010639485 0.051478535 -0.033797707 -0.052510895
0.022518685 -0.028905442 -0.035250638 -0.055693544 -0.023226498 0.054252323 -0.016027268 0.022503253
-0.06411492 -0.044171784 0.030074667 0.034936458 0.0058522234 -0.053201586 0.039644077 -0.018453486
-0.042927913 0.063493446 0.0020143897 0.007878496 -0.0012417878 -0.009664637 -0.02400765 0.060079124
-0.043757208 -0.040236454 -0.015845496 0.0090559935 -0.0035597442 -0.04265389 0.033995695 0.0074956124
-0.05620921 0.04266951 0.021831188 0.025302082 0.0016056317 0.060781844 -0.0036084894 -0.019196298
0.047447313 -0.04351867 0.05311812 -0.027232079 0.054090466 0.0132897 -0.0118728625 0.017880766
-0.012778901 -0.030984191 0.028331691 -0.05886146 0.040747255 0.051909033 0.00085052766 0.01596757
0.025306532 -0.05193962 0.01694444 -0.04159498 -0.027548905 -0.0041333293 -0.018048024 0.017579615
0.016805746 0.016849559 0.026523832 -0.05327162 -0.004471103 0.030186033 -0.058171432 -0.024226379
-0.05533126 -0.0234079 -0.05738718 0.057263575 0.008809602 0.006119407 0.010781793 0.027403342
-0.004843345 0.049015023 0.02558089 -0.016275506 -0.027574157 -0.04923545 -0.052646894 -0.0131877335
0.030273601 -0.05509418 -0.007402036 0.0046253055 0.010678873 -0.007939855 -0.039851375 -0.015330953
-0.045477286 -0.031459555 0.021099485 0.05756126 -0.0010501341 0.011592779 0.048953254 -0.040845096
0.047665596 0.03986607 -0.022975875 -0.008048397 -0.06082925 -0.05579 -0.033892304 0.05220071
0.03899398 0.0096507 -0.03897074 0.027844075 0.04043574 -0.029573169 0.015862199 0.030545836
0.04239393 0.0055932133 0.021070177 0.024157546 -0.048476104 -0.024713503 -0.02065593 -0.032034006
-0.007661535 0.042420886 -0.050906226 -0.0102357995 -0.04638217 0.009573825 -0.03120662 -0.007739142
-0.012496151 0.006234263 -0.0376845 0.024277652 -0.03890929 0.010132716 0.01801041 0.030689325
-0.0038455664 -0.039491888 0.023366183 0.06029062 0.00071696314 0.025844906 0.040799662 -0.010301814

policy_head.bias f4 [16]
00000000: b09e 423d 95c5 3e3c 7581 b0bc 6b5a 053d
00000010: 02ab 92bc 2ba0 843d f377 843c da0c a23c
00000020: 1bc7 a4bb fdc3 223d 7264 023c 8820 d3bc
00000030: 9a5f fa3b 3ec2 32bc b550 8cbd b970 57bd
0.047514617 0.011643787 -0.021546105 0.032556932 -0.017903809 0.06475862 0.016170477 0.019781519
-0.005028618 0.03973769 0.007958518 -0.025772348 0.007640791 -0.010910569 -0.06851331 -0.052597735

value_head.weight f4 [1, 256]
00000000: d143 8fbd feee 82bd 5bf1 2f3d 7105 6fbc
00000010: ce5b 8bbd 2f33 7ebd aafe d3bc ea61 cd3c
00000020: 0b44 083d 14e6 0cbd cb79 53bd 5d3b 273d
00000030: 5f9e 883d 5ee6 39bd abb5 0bbd 326e 85bc
00000040: 15fc 56bd ca49 313d 36d7 76bd dc1e 05bd
00000050: b820 a23d ebb1 9f3d c50a 8ebd 0414 00bd
00000060: dc4e ffba 6913 5ebd cbf2 f23c 8a07 40bd
00000070: a178 2abd 55ad d2bc 9ae2 903d 005f 903d
00000080: 13d9 19bd d616 a3bd e1e4 33bd 6820 9f3d
00000090: 8564 203d 40ed a43d 8d56 813d d38e a73d
000000a0: 0b26 19bd 3a65 eebc 64f2 183d b416 973d
000000b0: 6fb4 57bd 584b 39bd 613a e8bc 7e53 19bd
000000c0: 8683 9dbd fa39 883d 3d85 933d 8ae6 40bd
000000d0: ed63 acbd 1a23 883d d858 683d 3bd4 763d
000000e0: afc6 3e3d 0dc3 96bd 8c90 5e3d bbbd 33bd
000000f0: 6d72 25bd 3ff1 7f3d 31bc 5fbd 1b28 2e3d
00000100: f370 6f3d 58a3 9fbd 1f51 903c 764e 763d
00000110: 153b f9bc e2f8 7e3d 4552 993d 70c2 623d
00000120: 0a68 9b3d 9f74 26bd 69a9 a8bd 58b4 a6bd
00000130: fc9d 5ebd 9883 f73c bbc6 03bd 23ba 583d
00000140: ed7f 5ebd 2ded 98bd a100 20bd 9572 8f3d
00000150: 042e 873d 7ec8 2bbd 5a57 21bd 4580 103d
00000160: 2bff a9bd c282 3d3d 48f3 7bbd fbb9 903d
00000170: 5524 a13d dbcc 643d 7ead eebc 61f4 123d
00000180: b57a 79bd 94ef 22bd 9660 6fbd 82bf 26bd
00000190: 8db7 0e3d 41ff 45bd b21f 76bd fded 043d
000001a0: e0ad 23bd e825 8cbd 6b1a 9bbd 4830 03bd
000001b0: bc37 9f3d 781f 20bd 1746 1abd 1034 c0bc
000001c0: 93d6 953d a160 3ebd 691e 2f3d 0d97 1ebd
000001d0: 695c a73d ae3d 3cbd 5619 943d a5c6 923c
000001e0: fc1b 5b3d 909f 85bd de7f b3bc c933 ea3c
000001f0: 4e22 483d 085d 803d 69f0 58bd ffe5 923d
00000200: b26d 88bd 3e97 efbc 4895 5bbd 06e8 19bd
00000210: 35ff aa3d 5819 ad3d 9c1a 2fbd c397 933d
00000220: 598a 6ebd 8b02 283d 78a5 11bd 2c2f 893d
00000230: 4901 25bd fefc 02bd 5259 a2bd 01fa bf3c
00000240: aa9f 12bd b55c b2bc 74a1 653d dbcd d13c
00000250: 85f0 b53c b799 31bd dcda 81bd d954 383d
00000260: e148 9e3c c402 62bd 2c14 93bd d7c2 a4bd
00000270: 44f6 4abd 2818 273d b55c 443d 804d b3bc
00000280: 5ab0 69bd d851 6b3d fa7a 383d 7419 ce3c
00000290: b00a 953d ba5b 713c 452a b3bd 3750 5d3d
000002a0: f7bc d73c 206f 233d 829f eabc e00f a4bd
000002b0: 572a bc3c 77f8 36bd d19c 3c3d ac21 303d
000002c0: ee40 663d 14a2 a1bd 0097 86bd 2c02 043d
000002d0: dd75 173d 4ea9 da3c ead0 d83c 3587 6cbd
000002e0: 33cc 2bbd f43a 603d bc1f 12bd 73b8 64bd
000002f0: 13c3 843d 7274 29bd 8ff1 2cbd 728d 74bd
00000300: ee24 a7bd 7f5a f33c 6886 05bd 1ab0 753d
00000310: 15cb 9cbc 8197 5e3d 2c73 673d 3078 89bd
00000320: b54f fb3c 246b 433d 4104 8c3d 9f07 01bd
00000330: 517e 3b3d f199 3a3d 06d4 81bd 9ef9 bb3c
00000340: 597d a1bd 99c7 753d d86b 5b3d 9244 e1bc
00000350: 9981 9d3c ac04 7e3d f1c9 8a3d a745 953d
00000360: fc51 d23c 4f88 813d af6a 623d bce5 003d
00000370: c488 353d 115c 433d 0962 30bd 572c abbd
00000380: 26ad b6bd efa1 263d 347c 82bd ff20 b53c
00000390: 81e2 07bd bc2a 9dbd 4bd9 3ebd 4736 abbd
000003a0: 4270 32bd 310f 813d 4998 293d df6e b73c
000003b0: e9b0 21bd 6c16 f8bc 766d 3b3d ca47 30bd
000003c0: 01e5 a7bd 7293 22bd 3fd1 17bd d754 a8bd
000003d0: 0089 26bd 5834 49bd e6ea 67bd 4816 163d
000003e0: eab8 643d 19f2 8fbc 6532 7cbd d609 afbd
000003f0: d6bd a43d 4da6 64bd 13c7 9bbd 41ba e73c
-0.06995357 -0.063932404 0.042954784 -0.0145887 -0.0680462 -0.06206053 -0.02587827 0.025071103
0.033268016 -0.034399107 -0.051629823 0.040828098 0.06670832 -0.04538571 -0.0341088 -0.016287897
-0.052486498 0.04328326 -0.060263835 -0.032500133 0.07916397 0.07797607 -0.06935648 -0.03126909
-0.0019478458 -0.05421773 0.029656788 -0.04688219 -0.041618947 -0.025717417 0.07074471 0.0704937
-0.037560534 -0.0796334 -0.043919448 0.07769853 0.039158363 0.08053064 0.063153364 0.081815384
-0.037389796 -0.029101003 0.037340537 0.07377377 -0.05266231 -0.04523787 -0.02834815 -0.03743314
-0.07691102 0.06651683 0.072031476 -0.04709486 -0.08417497 0.0664732 0.056725353 0.060260992
0.0465762 -0.07361422 0.05433707 -0.043882113 -0.040392328 0.06248593 -0.054622833 0.042518716
0.058457326 -0.07794827 0.017616807 0.06013342 -0.03042368 0.062249072 0.07486395 0.05536121
0.07588203 -0.040638562 -0.082354374 -0.081398666 -0.054349884 0.030214116 -0.032171946 0.05291189
-0.05432122 -0.07467113 -0.0390631 0.07004277 0.06600574 -0.04193925 -0.039389946 0.035278577
-0.083006226 0.04626728 -0.061511308 0.07066723 0.07868258 0.055859428 -0.029135462 0.03587759
-0.06090804 -0.03977926 -0.05844172 -0.04070998 0.034843016 -0.048339132 -0.06008882 0.032453526
-0.039960742 -0.068431675 -0.07573398 -0.032028466 0.07774302 -0.03909251 -0.0376645 -0.023462325
0.073163174 -0.04647887 0.04275361 -0.038718272 0.08171923 -0.04595726 0.07231395 0.017916987
0.053493485 -0.06524575 -0.021911558 0.028589146 0.04886084 0.06267744 -0.052963648 0.071727745
-0.06661548 -0.029246923 -0.053609163 -0.03757479 0.08349458 0.084520996 -0.042749986 0.072066806
-0.058237407 0.04101805 -0.035558194 0.066984504 -0.04028443 -0.031979553 -0.07927193 0.02343464
-0.0357968 -0.021772722 0.056062177 0.025610855 0.022209415 -0.043359485 -0.06340572 0.045002792
0.01932186 -0.05517842 -0.07181582 -0.08044975 -0.049551263 0.04079452 0.047939975 -0.02188754
-0.057052948 0.0574511 0.045039155 0.025158621 0.07277429 0.014731342 -0.08748297 0.054031577
0.026335223 0.0399009 -0.028640512 -0.080108404 0.022969408 -0.04467055 0.04604799 0.043000862
0.056214266 -0.07892242 -0.0657177 0.032228634 0.036977638 0.026692059 0.026466805 -0.05774613
-0.041942786 0.054743722 -0.035674796 -0.055839967 0.0648252 -0.041370817 -0.042222556 -0.059705205
-0.08161341 0.029706238 -0.032598883 0.059982397 -0.019139806 0.054343704 0.05650632 -0.06712377
0.030677656 0.0477096 0.06836749 -0.03150141 0.04577476 0.045556966 -0.063392684 0.022946175
-0.07885236 0.060004804 0.053569645 -0.027498517 0.019226836 0.062016174 0.067767985 0.07288676
0.025673859 0.06324827 0.055277523 0.03146909 0.044319883 0.047695223 -0.043062244 -0.083580665
-0.08919744 0.040681776 -0.06371346 0.02211046 -0.033174995 -0.076741666 -0.046593945 -0.08359962
-0.04356409 0.06301726 0.041404996 0.022391735 -0.039475355 -0.03028413 0.045758687 -0.043037213
-0.08197976 -0.039691396 -0.037064787 -0.08219307 -0.040657997 -0.049122185 -0.0566205 0.036642343
0.05584041 -0.017571496 -0.061571497 -0.08546798 0.08044021 -0.05582266 -0.0760633 0.028287055
