My-RL/Good Models/custom_ppo_and_torso_penalty.pt (torch, 346857 bytes, 7 tensors)

shared.0.weight f4 [256, 60]
-0.0999654 -0.051112823 -0.05760065 0.038087647 0.06890277 -0.08429398 -0.002901795 -0.054162078
0.027504044 -0.057792004 0.06600426 -0.09768237 0.07187319 -0.14025794 0.051833436 -0.052415017
-0.008669522 -0.03860055 -0.064926215 0.09091164 -0.0068596713 0.0071968166 0.07301112 -0.10337837
0.05695869 0.02820137 -0.053833462 0.09825704 -0.097356535 0.056560326 -0.0036232013 -0.10236239
0.08388799 0.044495534 -0.016046707 -0.09172029 0.071971685 0.012319562 -0.14261724 -0.08472405
-0.08787781 0.08850671 -0.016729876 -0.141706 -0.0613832 0.059313156 -0.03743893 0.050076075
-0.0035052367 0.08025598 -0.0028071632 -0.042891014 -0.0983589 -0.13856445 -0.12368542 0.016702952
-0.037041355 -0.06373733 -0.021856843 -0.108383 -0.045060392 0.06835332 -0.06680403 0.09293096
0.029131986 -0.09099181 0.014884652 -0.038474124 0.057121303 -0.043469433 -0.10486951 0.0074194944
0.04468566 -0.13123582 0.11860261 -0.023993058 -0.016840113 -0.05155075 -0.13265617 0.028330624
-0.13453078 0.088553146 -0.044579178 0.023009095 -0.08083959 -0.044511423 0.07598841 0.046186052
0.106101796 -0.1357059 0.033575036 0.082761474 0.015531326 -0.017283812 0.034951292 -0.09294953
0.09964392 -0.07023312 -0.1356202 0.05624652 -0.06292128 -0.071864136 0.08533644 -0.03117856
0.044688035 0.022038745 0.04092579 0.02961827 -0.055863604 -0.08362269 0.06076977 -0.08939793
-0.040690638 0.10705984 0.078601904 0.020499552 0.044815447 0.056178063 -0.072325 0.012171688
-0.08206128 -0.09602959 0.025413763 0.0075055766 -0.11594324 0.07324827 -0.13389164 -0.018718587
0.12963822 -0.060976584 0.10506945 0.09526253 0.07617621 0.041716814 -0.066756085 -0.037053056
-0.020629792 -0.08615884 -0.04257429 0.018339531 0.018409459 0.108084716 0.09463586 -0.050610907
-0.0138182575 0.09950297 0.089145474 0.09260445 0.113378674 0.03755645 0.14053062 0.018876761
0.043661684 -0.077576876 -0.0034662613 0.13875243 0.10830862 0.026604528 -0.09465955 -0.11948187
0.07364424 -0.06489237 -0.030863857 0.074740425 0.09997603 0.06981992 -0.09254159 0.009772496
0.12652138 0.123504415 -0.044294413 0.049077235 -0.0068962644 0.12865102 0.06019575 -0.087713435
-0.085677475 -0.04988405 -0.113087036 0.049385197 0.077718094 0.02810524 0.10263316 0.11457291
0.035951566 -0.047082916 0.029060759 0.103321664 -0.05441035 -0.09235704 0.060234904 0.08214978
-0.08397013 0.03392625 0.0375956 0.09474753 -0.055878438 0.029737327 0.13251057 0.043747693
0.05429852 -0.10997863 -0.09731351 -0.030358702 0.09195035 -0.09727954 -0.029219758 0.031127203
-0.020886533 0.1175512 0.04388015 -0.097906426 0.10711014 0.009115 -0.036376536 -0.040097527
0.045755215 0.12784201 -0.0036203393 -0.046149835 0.10045619 -0.10314008 -0.052237086 -0.006541784
-0.05865565 -0.054918483 -0.08410651 0.0041313483 0.097845845 0.046899285 0.10510841 -0.010480959
0.06625747 -0.08069182 -0.07148478 -0.055934582 0.12085011 0.010139062 0.06054842 0.10002626
0.039822828 -0.026627004 -0.015488208 -0.113116905 -0.04652802 -0.0704186 -0.112661235 -0.060184214
0.09630727 -0.109916605 0.12571342 0.10377341 -0.029657502 0.035085037 -0.011933185 0.08857251
00000000: a9ba ccbd ae5b 51bd a9ee 6bbd cb01 1c3d
00000010: e51c 8d3d 52a2 acbd 0b2c 3ebb 0ed9 5dbd
00000020: 2950 e13c 4fb7 6cbd 3e2d 873d b20d c8bd
00000030: 4032 933d c79f 0fbe 4c4f 543d 21b1 56bd
00000040: 9c0a 0ebc 9c1b 1ebd 09f8 84bd e22f ba3d
00000050: 18c7 e0bb 46d3 eb3b db86 953d 0ab8 d3bd
00000060: 844d 693d 8f06 e73c 7a80 5cbd fd3a c93d
00000070: dd62 c7bd cdab 673d 3b73 6dbb 5fa3 d1bd
00000080: 77cd ab3d f340 363d 6274 83bc d9d7 bbbd
00000090: e465 933d fdd7 493c 410a 12be cd83 adbd
000000a0: 48f9 b3bd 0243 b53d 180d 89bc 611b 11be
000000b0: f36c 7bbd 5af2 723d 9059 19bd 921c 4d3d
000000c0: 1db8 65bb 3f5d a43d 62f8 37bb 7dae 2fbd
000000d0: 6470 c9bd d7e3 0dbe c84e fdbd a1d4 883c
000000e0: adb8 17bd b888 82bd 1f0d b3bc e8f7 ddbd
000000f0: 3f91 38bd d3fc 8b3d 8dd0 88bd 9652 be3d
00000100: 34a6 ee3c ea59 babd c1de 733c 0b97 1dbd
00000110: 07f8 693d 010d 32bd d3c5 d6bd 3b1f f33b
00000120: 5008 373d af62 06be ede5 f23d 178d c4bc
00000130: 47f4 89bc e126 53bd 05d7 07be a015 e83c
00000140: 70c2 09be 5a5b b53d a898 36bd 927d bc3c
00000150: 3a8f a5bd 9c51 36bd d09f 9b3d 962d 3d3d
00000160: e64b d93d 7df6 0abe fa85 093d d97e a93d
00000170: 1a77 7e3c c896 8dbc 1629 0f3d 535c bebd
00000180: 1d12 cc3d 62d6 8fbd 06e0 0abe c062 663d
00000190: dfdc 80bd 812d 93bd dfc4 ae3d 2e6a ffbc
000001a0: cd0a 373d 998a b43c cda1 273d 04a2 f23c
000001b0: 3cd1 64bd 5f42 abbd b9e9 783d 4316 b7bd
000001c0: 3aab 26bd 3042 db3d 09fa a03d adee a73c
000001d0: 6790 373d f81a 663d 211f 94bd c26b 473c
000001e0: bf0f a8bd 29ab c4bd 8630 d03c 57f1 f53b
000001f0: a673 edbd 3003 963d e41a 09be b957 99bc
00000200: e2bf 043e 95c2 79bd a72e d73d 0019 c33d
00000210: 4602 9c3d 40df 2a3d 6ab7 88bd f2c4 17bd
00000220: cfff a8bc 0c74 b0bd 6162 2ebd c93c 963c
00000230: 6fcf 963c 855b dd3d 72d0 c13d 624d 4fbd
00000240: f965 62bc 37c8 cb3d e791 b63d 67a7 bd3d
00000250: 1433 e83d cbd4 193d 42e7 0f3e 70a3 9a3c
00000260: 98d6 323d a0e0 9ebd 372a 63bb 1e15 0e3e
00000270: e9d0 dd3d bdf1 d93c dedc c1bd e9b2 f4bd
00000280: cbd2 963d 4ae6 84bd 33d6 fcbc 8211 993d
00000290: 3cc0 cc3d bffd 8e3d 7286 bdbd d21c 203c
000002a0: d28e 013e e2ef fc3d 0f6e 35bd 3605 493d
000002b0: 0ffa e1bb 18bd 033e d28f 763d 1aa3 b3bd
000002c0: ac77 afbd 3853 4cbd 2d9a e7bd 2248 4a3d
000002d0: aa2a 9f3d f63c e63c 5631 d23d 34a5 ea3d
000002e0: f341 133d 04da 40bd d410 ee3c 4f9a d33d
000002f0: 63dd 5ebd b025 bdbd e0b8 763d 253e a83d
00000300: 88f8 abbd 40f6 0a3d d8fd 193d fe0a c23d
00000310: cae0 64bd b29b f33c dab0 073e c830 333d
00000320: 2068 5e3d 7a3c e1bd 4e4c c7bd d0b2 f8bc
00000330: 7750 bc3d 7f3a c7bd 465e efbc 7afe fe3c
00000340: 3c1a abbc afbe f03d acbb 333d 2a83 c8bd
00000350: 905c db3d 1557 153c 90ff 14bd 4e3d 24bd
00000360: d269 3b3d 04e9 023e 3743 6dbb 9c07 3dbd
00000370: fabb cd3d 1b3b d3bd 8ef6 55bd 765c d6bb
00000380: e840 70bd 34f2 60bd 0940 acbd 4360 873b
00000390: 6763 c83d 7719 403d 1443 d73d 54b8 2bbc
000003a0: ffb1 873d c141 a5bd 9d66 92bd a91b 65bd
000003b0: 4380 f73d 4f1e 263c 9f01 783d 91da cc3d
000003c0: 431d 233d e020 dabc 41c2 7dbc d6a9 e7bd
000003d0: 2a94 3ebd a137 90bd efba e6bd b983 76bd
000003e0: bf3c c53d f51b e1bd 05bb 003e 2787 d43d
000003f0: 4af4 f2bc 54b5 0f3d 6883 43bc 8165 b53d

shared.0.bias f4 [256]
0.09960113 0.065681264 0.08217324 -0.05262583 0.110945955 0.08673103 0.13530295 -0.061486475
0.069199905 0.048230205 0.031728305 -0.12010784 0.09266007 -0.093255855 -0.036777508 0.14358398
-0.023170559 0.054260623 0.126707 0.0068252757 0.061579976 0.1382664 0.043280106 -0.13396662
0.0745708 0.037276715 0.006963896 -0.0045622443 -0.11157598 -0.12425026 0.08385051 -0.13392031
-0.011914411 -0.13662782 -0.026563672 -0.11359182 -0.065803185 0.042385533 0.0380456 0.023960028
-0.056820855 0.0036542886 -0.071220726 -0.05344992 -0.051190056 -0.0056098304 -0.014707672 0.12600681
-0.094245255 -0.122633696 -0.13755667 -0.0009173581 0.04930995 0.046905432 -0.04664411 -0.1391799
-0.08809777 0.04468656 0.10805194 0.13397695 0.03850864 0.11883006 0.013340193 0.046374116
0.027815111 -0.13694781 -0.109668285 0.03056677 0.017542507 0.011022124 0.013317323 0.03222312
0.11124832 -0.041212734 0.000112191425 0.026008654 0.097555146 0.045632467 -0.0349101 0.05980341
-0.047230538 0.051907003 0.11270444 0.032503128 -0.11867868 -0.07656667 -0.0025488378 -0.06542797
0.0038072113 -0.0040424163 -0.09667119 -0.11198439 0.09209313 0.06183139 0.05394541 0.06978452
-0.025930587 0.13867776 -0.06976134 -0.06278925 0.106476 0.042373627 -0.020885753 0.11771205
0.07368891 0.05229541 -0.07487126 0.04579601 -0.07447601 0.027775701 -0.005214301 -0.098379314
-0.09815107 -0.000488991 0.006370133 0.10896328 0.0792763 0.020947745 0.03378905 0.062510215
0.049888447 -0.051459394 0.083913356 -0.06281638 -0.065823935 -0.10673074 -0.044680215 -0.030986449
0.1305378 0.07012014 -0.02034745 0.046529725 -0.03955585 -0.09270246 -0.10809594 0.070809826
0.079619996 -0.04051184 0.038561266 0.11204988 -0.05872637 -0.072877415 -0.075382486 -0.009554401
-0.1192679 0.07040184 0.056921642 -0.07690181 0.04523075 0.11198379 -0.0856727 -0.015038067
-0.09655249 -0.10038411 0.04499855 0.018391956 -0.0939722 -0.009937847 -0.12545735 -0.076564565
0.05391406 0.07678048 0.0019871104 0.041781154 0.0488195 -0.07008406 0.01725792 0.043166984
0.06763703 -0.11818754 -0.07289184 0.07627919 0.07228603 0.1374872 0.13104314 0.060509354
-0.05396674 -0.04020605 -0.027623156 0.044433817 0.070922695 0.10015527 -0.031158077 0.040478677
0.010236196 0.009567068 0.10148654 -0.009023946 -0.11805922 -0.067501 -0.10049684 0.087771945
0.03720269 -0.10054704 -0.08911766 -0.03823479 0.09324286 0.13061504 0.102733135 -0.08947142
-0.046651818 0.06599898 0.07064748 0.042326048 -0.048120633 -0.05478128 -0.09791674 -0.041897852
0.08665797 -0.090821035 -0.060052857 -0.093393885 -0.042647894 0.00416352 -0.037143208 0.03165282
-0.032519016 -0.055864174 -0.10880561 -0.13744117 -0.06796431 0.12697113 -0.105124615 -0.054671973
-0.023056006 0.085226744 0.07998647 0.14063674 0.12708671 0.10511208 -0.024756204 -0.066378966
0.04010789 -0.015925987 -0.05485066 -0.11521675 -0.09224217 0.052218117 0.12073362 -0.0302613
-0.11178105 0.06217084 -0.069802 0.07565471 -0.033763908 -0.11330331 0.044287346 0.02517532
0.11604296 -0.032220427 0.08816679 -0.05623065 0.036740348 -0.000778741 0.019937873 -0.08400043
00000000: adfb cb3d e683 863d 724a a83d 2f8e 57bd
00000010: a237 e33d 0aa0 b13d db8c 0a3e 3ed9 7bbd
00000020: aeb8 8d3d 098d 453d 8af5 013d 19fb f5bd
00000030: 90c4 bd3d edfc bebd 03a4 16bd ae07 133e
00000040: 2fd0 bdbc 6340 5e3d 7bbf 013e 90a6 df3b
00000050: 493b 7c3d b595 0d3e 7b46 313d 8c2e 09be
00000060: 93b8 983d 78af 183d 6531 e43b e17e 95bb
00000070: f381 e4bd ec76 febd d1b9 ab3d 6822 09be
00000080: a934 43bc 2ae8 0bbe 0f9c d9bc d4a2 e8bd
00000090: d2c3 86bd 749c 2d3d b4d5 1b3d d247 c43c
000000a0: fcbc 68bd ca7c 6f3b 2cdc 91bd 4eee 5abd
000000b0: aaac 51bd abd2 b7bb 73f8 70bc ee07 013e
000000c0: a803 c1bd 6027 fbbd a8db 0cbe dc7a 70ba
000000d0: 3bf9 493d e91f 403d e50d 3fbd 2d85 0ebe
000000e0: 9b6c b4bd 4109 373d 564a dd3d 4131 093e
000000f0: 3cbb 1d3d 2d5d f33d d390 5a3c c9f2 3d3d
00000100: 84dc e33c 0c3c 0cbe c499 e0bd 2a67 fa3c
00000110: 4eb5 8f3c 2496 343c e730 5a3c 64fc 033d
00000120: 29d6 e33d afce 28bd 5048 eb38 1a10 d53c
00000130: feca c73d 1ce9 3a3d e5fd 0ebd 6cf4 743d
00000140: cf74 41bd 709c 543d 96d1 e63d 0022 053d
00000150: cf0d f3bd fcce 9cbd 670a 27bb 19ff 85bd
00000160: 6882 793b 3f76 84bb 8bfb c5bd 1258 e5bd
00000170: 539b bc3d e942 7d3d ddf5 5c3d 30eb 8e3d
00000180: 626c d4bc 8b01 0e3e 09df 8ebd a697 80bd
00000190: 1710 da3d f88f 2d3d 9918 abbc 0413 f13d
000001a0: 36ea 963d b633 563d 1a56 99bd 9994 3b3d
000001b0: e186 98bd de89 e33c badc aabb 187b c9bd
000001c0: 6e03 c9bd a12f 00ba 8cbc d03b 2428 df3d
000001d0: 9d5b a23d 9b9a ab3c 6366 0a3d 5b05 803d
000001e0: d457 4c3d 16c7 52bd c4da ab3d e0a5 80bd
000001f0: b3ce 86bd a595 dabd 9a02 37bd 4bd7 fdbc
00000200: b3ab 053e 269b 8f3d b2af a6bc f495 3e3d
00000210: 5105 22bd cada bdbd 6761 ddbd be04 913d
00000220: cf0f a33d beef 25bd 6bf2 1d3d 687a e53d
00000230: 108b 70bd c140 95bd 2262 9abd 108a 1cbc
00000240: bb42 f4bd d72e 903d ab26 693d b27e 9dbd
00000250: e143 393d c257 e53d 2b75 afbd 3962 76bc
00000260: 50bd c5bd 2f96 cdbd 6650 383d baaa 963c
00000270: 7f74 c0bd 5ad2 22bc e477 00be e2cd 9cbd
00000280: fdd4 5c3d 163f 9d3d 2e3a 023b b722 2b3d
00000290: f5f6 473d 3b88 8fbd 7b60 8d3c ddcf 303d
000002a0: 4885 8a3d 4f0c f2bd 5148 95bd 4438 9c3d
000002b0: b30a 943d 72c9 0c3e 2c30 063e a8d8 773d
000002c0: 3a0c 5dbd 19af 24bd f549 e2bc 3c00 363d
000002d0: eb3f 913d 351e cd3d 393f ffbc f8cc 253d
000002e0: b8b5 273c 31bf 1c3c 2dd8 cf3d 2cd9 13bc
000002f0: 08c9 f1bd f73d 8abd 4ad1 cdbd c7c1 b33d
00000300: d961 183d 9beb cdbd 5283 b6bd 159c 1cbd
00000310: 1df6 be3d f3bf 053e c065 d23d cb3c b7bd
00000320: fa15 3fbd 792a 873d a0af 903d 145e 2d3d
00000330: 241a 45bd 5662 60bd 9288 c8bd 159d 2bbd
00000340: bc79 b13d 6100 babd fcf9 75bd 4b45 bfbd
00000350: 8faf 2ebd 236e 883b 7a23 18bd 63a6 013d
00000360: a932 05bd d5d1 64bd 7ad5 debd 61bd 0cbe
00000370: df30 8bbd b804 023e 934b d7bd b8ef 5fbd
00000380: f3df bcbc 5c8b ae3d f2cf a33d 1403 103e
00000390: 0523 023e 0145 d73d 86cd cabc b2f1 87bd
000003a0: 2c48 243d 3777 82bc 16ab 60bd c2f6 ebbd
000003b0: 76e9 bcbd aae2 553d 3043 f73d 8ce6 f7bc
000003c0: 77ed e4bd daa6 7e3d 5af4 8ebd dbf0 9a3d
000003d0: 064c 0abd 910b e8bd a666 353d 793c ce3c
000003e0: eea7 ed3d 91f9 03bd ca90 b43d 1c52 66bd
000003f0: 0c7d 163d 6d24 4cba c054 a33c 6b08 acbd

shared.2.weight f4 [256, 256]
0.039452992 -0.021689208 -0.041022412 -0.011215339 0.019951526 0.07404294 0.032876354 0.020490704
0.023313023 0.0409593 0.042782724 0.0112074185 0.0021708196 -0.024245556 -0.033980496 0.027686538
-0.02614595 -0.043268315 -0.020784404 -0.021165283 -0.0046824915 -0.026730534 -0.06919028 -0.025569277
-0.028368263 -0.058306403 -0.010272322 0.024334395 0.005465492 -0.03836147 -0.025183456 0.02744313
-0.00954174 -0.045712207 -0.04308398 0.043601066 -0.06019001 0.030366234 0.0036610686 0.0034235057
-0.07241651 -0.03491271 0.019423852 -0.0066087763 0.07087063 -0.064679645 -0.01748613 0.07298291
0.0057849856 0.064506136 0.02483451 -0.0044413432 0.032730818 0.03753641 0.07039143 -0.040646497
-0.061077222 -0.02866624 -0.013526 -0.039094027 0.014287121 0.077086665 -0.018886454 0.013892341
-0.007103736 0.0027771678 -0.06329046 -0.02641913 -0.018464537 -0.035609595 0.0068667405 -0.01908097
0.06073914 -0.023859862 -0.008287797 0.02463676 0.021659246 -0.030396136 0.02018089 -0.0121652
0.03518434 -0.0034265188 0.03657215 -0.024908809 -0.023794984 -0.034678936 -0.03935836 0.034041356
0.0022357674 0.035421476 0.011503407 0.026339853 -0.013319058 0.032552328 -0.0138172 0.008060801
0.013029841 0.026660101 -0.008461743 -0.03993318 0.010613198 -0.044658255 0.034342423 0.0061031063
-0.012799754 0.027880136 -0.05063365 -0.019246673 0.01837101 -0.006977469 -0.021087999 -0.034807473
0.030787686 0.039137885 0.019502291 0.008110763 0.06891822 0.008843806 0.008774298 0.0052415663
0.031063832 0.03476302 -0.007245713 -0.008494571 0.034530833 -0.043531775 -0.045507643 0.06796106
-0.035511363 0.009115138 0.04627328 0.015846577 0.009032095 -0.021566255 -0.05333427 -0.008831375
-0.050987102 0.061186075 -0.046150565 0.036547676 -0.020647425 -0.03224713 -0.023585139 0.013725492
-0.002889426 0.050239086 0.009350519 -0.058716632 0.06871859 -0.0016410833 0.055451833 0.0315537
0.029305762 0.045429394 0.058505014 -0.07174732 0.0466159 -0.03298805 -0.030977735 0.06156295
0.07077447 -0.057765197 -0.020769097 -0.023672178 -0.011507139 -0.031576354 -0.029928913 0.018859114
0.032322135 -0.040757917 -0.019840246 0.06279433 -0.009390935 0.025682792 0.021724699 0.012864806
0.0051111225 -0.014013453 -0.029070688 0.059037235 -0.038979653 -0.044602633 0.04915401 0.0030389556
-0.0077955457 -0.030631429 -0.015318575 0.039642245 -0.004170539 -0.018260155 -0.03201054 0.017233456
0.0011481235 -0.06462368 -0.037258793 -0.0010381136 -0.0041442746 0.059482638 0.041181535 0.011695371
0.045046013 0.016151821 0.074604996 -0.048200514 -0.029532766 0.06017133 -0.019010074 -0.0059232167
0.01784607 0.022503063 -0.021873238 -0.066595264 0.021299358 0.040036634 0.016854135 0.031762443
0.038191106 -0.060054403 -0.027688911 -0.05769205 -0.039651096 0.020790827 0.0021127316 0.016648035
-0.03259206 -0.031538356 -0.007150882 0.017110776 0.026449393 -0.019697316 0.037651714 -0.045822795
0.017271284 0.038590364 0.056079447 0.028573435 0.01320139 -0.04443 0.02178929 0.038582843
0.016377766 0.039336845 -0.0575501 0.019612461 -0.041373614 0.06674785 -0.013523233 -0.042583782
-0.04678071 -0.006472853 -0.04578352 0.02142584 -0.024556702 0.050867006 -0.030041648 -0.06305931
00000000: 7699 213d 91ad b1bc 1e07 28bd 8bc0 37bc
00000010: 6271 a33c d3a3 973d 5ba9 063d 1fdc a73c
00000020: f4fa be3c f0c4 273d f03c 2f3d 529f 373c
00000030: 4f44 0e3b 9e9e c6bc 222f 0bbd e1ce e23c
00000040: 0830 d6bc 1e3a 31bd 0e44 aabc d162 adbc
00000050: 966f 99bb fef9 dabc a2b3 8dbd a976 d1bc
00000060: 8f64 e8bc b2d2 6ebd 3e4d 28bc ed58 c73c
00000070: df17 b33b eb20 1dbd 894d cebc 6ad0 e03c
00000080: f554 1cbc b93c 3bbd d478 30bd 0897 323d
00000090: cd89 76bd 9cc2 f83c 8aee 6f3b e55c 603b
000000a0: 1b4f 94bd a100 0fbd c51e 9f3c 6f8e d8bb
000000b0: 9f24 913d c376 84bd 133f 8fbc 1078 953d
000000c0: fa8f bd3b cb1b 843d be71 cb3c b088 91bb
000000d0: c010 063d c7bf 193d 6229 903d f17c 26bd
000000e0: 1c2c 7abd 76d5 eabc 289c 5dbc 0f21 20bd
000000f0: 8714 6a3c 9ddf 9d3d c4b7 9abc b49c 633c
00000100: 75c6 e8bb 2501 363b 6e9e 81bd ee6c d8bc
00000110: f142 97bc 5edb 11bd 6502 e13b b24f 9cbc
00000120: 9bc9 783d c275 c3bc 8ac9 07bc 08d3 c93c
00000130: bb6e b13c 5101 f9bc 6552 a53c 8c50 47bc
00000140: 741d 103d 728f 60bb aecc 153d 8f0d ccbc
00000150: b3ed c2bc 800b 0ebd 3b36 21bd f36e 0b3d
00000160: f485 123b 1c16 113d c978 3c3c adc6 d73c
00000170: 2e38 5abc 9755 053d 8a61 62bc 7311 043c
00000180: 1d7b 553c 4966 da3c 1fa3 0abc f990 23bd
00000190: fbe2 2d3c 93eb 36bd a4aa 0c3d 91fc c73b
000001a0: 0fb6 51bc e264 e43c 3b65 4fbd 33ab 9dbc
000001b0: cd7e 963c 41a3 e4bb bdc0 acbc 4892 0ebd
000001c0: 7536 fc3c 0c4f 203d 45c3 9f3c 01e3 043c
000001d0: ff24 8d3d 9ce5 103c 13c2 0f3c 72c1 ab3b
000001e0: 9479 fe3c ab63 0e3d 726d edbb d02c 0bbc
000001f0: 3470 0d3d 604e 32bd 3966 3abd 2b2f 8b3d
00000200: 5d74 11bd a957 153c 0d89 3d3d aed0 813c
00000210: 5afb 133c b7ab b0bc 0975 5abd 79b1 10bc
00000220: dad7 50bd 409e 7a3d 6008 3dbd 04b3 153d
00000230: ca24 a9bc 9115 04bd 9f35 c1bc e3e0 603c
00000240: 865c 3dbb 80c7 4d3d eb32 193c da80 70bd
00000250: 55bc 8c3d 9e19 d7ba 7621 633d 743e 013d
00000260: a312 f03c 2c14 3a3d f4a2 6f3d 42f0 92bd
00000270: 50f0 3e3d 7a1e 07bd 05c5 fdbc 6f29 7c3d
00000280: 35f2 903d 339b 6cbd f423 aabc 28ec c1bc
00000290: 7088 3cbc 3556 01bd 7b2d f5bc 6e7e 9a3c
000002a0: 3764 043d c6f1 26bd 0388 a2bc 509a 803d
000002b0: 70dc 19bc b864 d23c fff7 b13c e8c6 523c
000002c0: 347b a73b af98 65bc a725 eebc 07d1 713d
000002d0: 21a9 1fbd 40b1 36bd b755 493d 3729 473b
000002e0: c771 ffbb c3ee fabc c3fa 7abc e85f 223d
000002f0: 04a9 88bb 5296 95bc 7c1d 03bd 2d2d 8d3c
00000300: a27c 963a 6c59 84bd ad9c 18bd 5011 88ba
00000310: b2cc 87bb 11a4 733d f8ad 283d f19d 3f3c
00000320: 2b82 383d d350 843c 81ca 983d e76d 45bd
00000330: b3ee f1bc 3676 763d 04bb 9bbc 8b17 c2bb
00000340: ec31 923c 5858 b83c 812f b3bc 1963 88bd
00000350: fe7b ae3c 74fd 233d af11 8a3c 5619 023d
00000360: 476e 1c3d 9bfb 75bd dbd3 e2bc 804e 6cbd
00000370: 3069 22bd 8651 aa3c c175 0a3b 7661 883c
00000380: 407f 05bd 5d2e 01bd f251 eabb e62b 8c3c
00000390: 66ac d83c 445c a1bc af38 1a3d afb0 3bbd
000003a0: 827c 8d3c ee10 1e3d 90b3 653d d612 ea3c
000003b0: a54a 583c 3bfc 35bd 747f b23c 0b09 1e3d
000003c0: aa2a 863c ac1f 213d a7b9 6bbd 50aa a03c
000003d0: 6177 29bd 19b3 883d 8d90 5dbc 556c 2ebd
000003e0: 219d 3fbd 3a1a d4bb 8087 3bbd 3e85 af3c
000003f0: 232b c9bc ec59 503d e719 f6bc 3d25 81bd

shared.2.bias f4 [256]
-0.043281816 -0.02629437 0.0070457933 -0.014639411 -0.037777614 -0.058543537 0.0008558627 -0.05176014
0.036213975 0.013732757 0.07274477 0.037985403 0.0058673206 -0.017437251 -0.0005966783 0.045604452
0.024772977 -0.0066582803 0.030691005 0.007567465 -0.008405837 0.020226382 0.023161082 0.016544905
0.028413061 -0.020146534 -0.03932691 -0.010023681 0.02826284 0.058884896 0.010722204 -0.044057496
-0.067644134 0.0066068266 -0.005250105 -0.03971386 -0.023543285 0.049061082 -0.02574871 -0.008811332
-0.009715338 0.0070212716 -0.040344656 -0.04291049 0.06183679 -0.029196871 -0.03263728 -0.06287809
0.023373118 0.04538445 -0.041064743 -0.022488542 -0.008598496 0.024619168 -0.00540479 -0.011221655
-0.006619654 -0.028473629 0.03742688 -0.024054786 0.07032666 0.052972473 0.0050245496 -0.00629775
-0.022215571 -0.042790484 0.060641944 0.021716662 -0.02217849 -0.016750038 -0.003842696 0.030821571
-0.022369483 0.038302016 0.02348077 -0.0277875 -0.010460125 0.056408543 0.044797163 -0.0057089175
-0.049183432 -0.022910044 -0.06637159 0.039695863 0.049062412 -0.07261678 0.07193893 0.011838896
0.055398438 -0.040813446 -0.005102989 0.035828065 0.0069321445 -0.037518602 -0.011517373 -0.017926035
0.0015954877 -0.012393964 0.028453203 -0.0037759165 0.038146656 0.04860823 -0.06674884 -0.0028628435
0.052805886 0.05533787 0.07085292 -0.015697375 -0.025695473 0.032545134 -0.062232133 -0.020059532
0.04316877 -0.023487778 0.064727865 -0.031555332 0.02785968 -0.033984277 0.067742705 -0.04599816
0.0027678523 -0.016859384 -0.012911503 -0.03537616 0.03907785 -0.017661842 -0.0071179527 -0.01628189
0.041534793 -0.035143092 0.042686667 -0.054945584 -0.0064720544 0.03564217 0.06355954 0.05921119
-0.041211784 0.061454996 -0.062589824 0.0273803 -0.0036448569 -0.04565298 -0.008031848 0.061830018
-0.020627076 -0.014791096 0.011117046 0.023157105 0.005876231 0.016240269 -0.023430146 -0.023022667
0.016163168 -0.03852777 0.027170971 -0.0142971175 0.0103616435 -0.0037332561 -0.043342113 -0.043283354
0.06550299 -0.014693749 0.017589934 0.049638137 -0.028207045 -0.03207202 -0.03219474 0.009428006
0.056512836 0.041269436 -0.0008193737 0.044726823 -0.008112927 0.0056744693 0.040165834 -0.035520036
-0.0049336413 0.003914827 -0.06639583 -0.06979411 -0.012519938 0.020145357 0.009556173 0.056230117
0.049875155 -0.04689746 -0.013180156 0.041413922 -0.059996318 0.014712957 0.04765393 -0.016554005
-0.02181632 0.027257817 0.061890304 0.044609882 -0.04193395 -0.009551796 0.016312992 0.05103818
0.027017267 0.05959884 0.06763817 0.02861885 0.038004003 0.0048689805 -0.0025085816 -0.07590951
-0.0048494283 -0.02410936 0.030340428 -0.043155886 0.012184267 -0.01697094 -0.0033795424 -0.048946947
0.040992454 -0.025588963 0.03861216 -0.061188526 0.00020172911 0.018367574 0.056985427 0.0029985583
-0.035753302 -0.0067506917 -0.03953684 0.028774172 0.06756905 -0.011291833 -0.022362318 0.02662506
-0.029391825 -0.039801285 0.040853895 -0.04378214 0.042021833 0.009127944 0.0017215743 0.010113072
0.052405924 -0.051243566 -0.062256996 0.021540219 -0.034258537 0.019257063 -0.039133422 0.013012754
-0.029005604 0.030699044 0.020776419 -0.022419767 0.04961041 0.014347193 0.031119855 0.012814591
00000000: 4648 31bd 4a67 d7bc 66e0 e63b 24da 6fbc
00000010: b3bc 1abd 59cb 6fbd f95b 603a 7102 54bd
00000020: 1b55 143d 5cff 603c 36fb 943d 9596 1b3d
00000030: a742 c03b 91d8 8ebc 676a 1cba bccb 3a3d
00000040: b3f0 ca3c b42d dabb b46b fb3c 7ff8 f73b
00000050: a3b8 09bc ccb1 a53c 4fbc bd3c 2e89 873c
00000060: 82c2 e83c 580a a5bc 4115 21bd 5e3a 24bc
00000070: 7987 e73c 4a31 713d 2fac 2f3c a275 34bd
00000080: 0289 8abd 147e d83b 1309 acbb 00ab 22bd
00000090: d9dd c0bc 46f4 483d f5ee d2bc 685d 10bc
000000a0: 152d 1fbc b212 e63b 7040 25bd e9c2 2fbd
000000b0: 9348 7d3d 472e efbc abae 05bd 3ac6 80bd
000000c0: fb78 bf3c 0ce5 393d 8133 28bd e439 b8bc
000000d0: b5e0 0cbc 23ae c93c aa1a b1bb 08db 37bc
000000e0: afe9 d8bb 8741 e9bc ee4c 193d 8b0e c5bc
000000f0: 6d07 903d aaf9 583d faa4 a43b 5b5d cebb
00000100: 6efd b5bc 1345 2fbd b063 783d 24e7 b13c
00000110: aaaf b5bc 6037 89bc bed5 7bbb 857d fc3c
00000120: 3540 b7bc 93e2 1c3d be5a c03c 9ca2 e3bc
00000130: f260 2bbc a50c 673d 3b7d 373d df11 bbbb
00000140: 9174 49bd d8ad bbbc d4ed 87bd 2198 223d
00000150: abf5 483d 1bb8 94bd b854 933d eef7 413c
00000160: 79e9 623d 002c 27bd f936 a7bb 73c0 123d
00000170: 0b27 e33b 1bad 19bd 5db3 3cbc 9fd9 92bc
00000180: af1f d13a 0e10 4bbc b116 e93c 5e75 77bb
00000190: ab3f 1c3d 6c19 473d 9eb3 88bd 8b9e 3bbb
000001a0: fc4a 583d f6a9 623d 561b 913d c897 80bc
000001b0: 507f d2bc 0c4e 053d 1fe7 7ebd e353 a4bc
000001c0: bcd1 303d 7169 c0bc 0b90 843d 2a40 01bd
000001d0: fc39 e43c 1933 0bbd b0bc 8a3d 9168 3cbd
000001e0: db64 353b b11c 8abc c58a 53bc 98e6 10bd
000001f0: 1810 203d 91af 90bc b73d e9bb 9961 85bc
00000200: 6320 2a3d 34f2 0fbd 37d8 2e3d 9f0e 61bd
00000210: 8713 d4bb 86fd 113d 812b 823d 6f87 723d
00000220: b0cd 28bd 3cb8 7b3d 182f 80bd a74c e03c
00000230: 8dde 6ebb 9ffe 3abd 0398 03bc 7941 7d3d
00000240: 1dfa a8bc 5a56 72bc 4524 363c f8b3 bd3c
00000250: 668d c03b 500a 853c 94f0 bfbc 089a bcbc
00000260: 9f68 843c 4ccf 1dbd a895 de3c 753e 6abc
00000270: e2c3 293c a5a9 74bb 8087 31bd e349 31bd
00000280: 6e26 863d 0dbe 70bc c418 903c 5c51 4b3d
00000290: 7612 e7bc f35d 03bd a2de 03bd ec77 1a3c
000002a0: 017a 673d 240a 293d 3dcb 56ba 7933 373d
000002b0: 15ec 04bc e6f0 b93b ee84 243d 757d 11bd
000002c0: 62aa a1bb f347 803b 89fa 87bd 37f0 8ebd
000002d0: 6d20 4dbc e007 a53c 7f91 1c3c 8d51 663d
000002e0: e449 4c3d 8d17 40bd 95f1 57bc a5a1 293d
000002f0: b3be 75bd 9d0e 713c c430 433d 449c 87bc
00000300: 24b8 b2bc c94b df3c b080 7d3d dab8 363d
00000310: efc2 2bbd 237f 1cbc d3a2 853c 690d 513d
00000320: 5153 dd3c ea1d 743d e285 8a3d 1472 ea3c
00000330: 16aa 1b3d f88b 9f3b 0467 24bb 7276 9bbd
00000340: f4e7 9ebb fe80 c5bc 7d8c f83c 3ac4 30bd
00000350: 85a0 473c a406 8bbc 507b 5dbb 987c 48bd
00000360: b4e7 273d f29f d1bc c927 1e3d d2a0 7abd
00000370: 3f87 5339 9877 963c 8d69 693d 7683 443b
00000380: 0e72 12bd e834 ddbb 62f1 21bd d0b7 eb3c
00000390: a461 8a3d 6101 39bc 2e31 b7bc cc1c da3c
000003a0: 20c7 f0bc ac06 23bd 6a56 273d e754 33bd
000003b0: 161f 2c3d 5f8d 153c 73a6 e13a 4cb1 253c
000003c0: 98a7 563d c6e4 51bd 3101 7fbd 1d75 b03c
000003d0: ae52 0cbd fdc0 9d3c 5e4a 20bd 7233 553c
000003e0: 299d edbc 907c fb3c 4f33 aa3c a9a9 b7bc
000003f0: 4934 4b3d 7d10 6b3c 11ef fe3c 4af4 513c

policy_head.weight f4 [16, 256]
0.025290502 -0.052284747 -0.04390755 -0.0525981 0.033743512 -0.042232733 -0.013717883 0.04232293
-0.047085747 0.0043221354 0.010396896 0.040734068 0.0535181 0.03978638 -0.041282397 0.036623918
0.060935598 -0.043089915 0.0136014065 -0.048751425 -0.055976577 -0.035116952 -0.017044477 0.0610421
0.012785256 -0.017484 -0.035698507 -0.051514424 -0.011576468 -0.015070986 0.028208226 -0.037959788
0.01510667 -0.0465353 -0.018046543 0.02092229 -0.02758724 -0.06226776 -0.021741599 -0.026668811
0.054381575 -0.041804377 -0.022678275 -0.022270596 -0.022448204 -0.016155569 0.028112698 0.05111715
-0.0431724 -0.0294794 -0.010416672 -0.06260293 -0.014729095 -0.042315096 0.049365826 0.02713791
-0.004092396 -0.026300188 -0.04543424 0.042697363 0.010507796 0.04644745 0.04068321 -0.0414682
-0.00078800897 0.012657042 0.03502533 0.017728135 0.047198184 0.020626852 -0.011407496 -0.040204495
0.042969804 0.0087397145 0.0030830717 -0.026369011 -0.047884278 0.05572906 0.023208266 0.037793584
0.04387083 -0.056928948 0.027888624 -0.04199936 0.006215564 -0.037927132 0.03868428 0.027508385
-0.0011204281 0.01926024 0.019712817 -0.050321214 0.02554522 0.02369594 0.045433354 -0.018630257
0.03680194 -0.055415086 0.015177852 0.0017643666 -0.06076999 -0.0098978905 0.052092634 0.015222033
-0.055717383 0.033515625 0.020113656 0.01691896 -0.022456156 0.037096146 -0.039132673 0.048571818
0.032798257 0.02831079 -0.029888822 0.017658362 -0.010242859 0.013621392 -0.055325925 0.0063302023
0.05408792 0.014525065 -0.029351234 -0.046585795 0.050839625 0.013289946 0.035328247 0.019538397
-0.03952576 -0.041432776 -0.03750822 -0.02085733 0.00027598965 0.02950493 -0.03137705 0.019728465
0.02557636 0.035809293 -0.053352457 -0.007690965 0.052519403 -0.02972627 0.05821334 0.0333618
0.0071188565 -0.0072030937 -0.010745104 -0.0083547365 -0.044203993 0.037738346 0.016173683 0.057663634
0.006059437 0.036710277 0.0029548132 0.008709887 0.055265237 -0.0058949743 0.03230558 0.03260379
0.0317484 -0.0015480347 -0.002380499 -0.0020258948 0.02518335 0.060148902 0.06301348 0.06145259
0.022291565 -0.045145035 -0.05831911 0.011277625 -0.026221292 -0.04940734 -0.0261703 -0.008633855
-0.015902307 0.058288045 -0.034943666 0.04597453 0.010660452 -0.030109797 0.038086966 0.04785952
-0.04079057 0.019434197 0.012254785 0.026993293 0.029978288 0.02347727 -0.022817412 0.01962179
0.02218818 -0.033932723 0.057028588 -0.003194621 -0.049148012 -0.017848507 -0.03315206 0.051376045
-0.01820303 -0.045333937 -0.06068567 -0.06037121 -0.015669912 0.055302028 -0.017754858 0.03528952
0.062970646 0.019134143 -0.027476868 0.031377435 -0.030836208 -0.005447408 -0.029560892 -0.016561622
-0.026208872 0.014606531 -0.05907614 -0.0034212302 0.019194147 0.06151559 -0.032299183 0.016960634
-0.020406796 0.03189777 -0.041499052 -0.027050922 0.029302482 -0.021459144 0.05300794 -0.0044811205
0.02725833 0.0036079807 0.04487402 0.021306146 0.040341325 0.0016498449 -0.02754108 0.014228952
-0.027371079 0.03857916 -0.020892268 -0.052050073 0.018278496 -0.027302178 -0.051563367 0.036165982
-0.0320001 0.06344282 0.029350912 0.021331172 0.018551126 -0.0015235157 -0.047709744 -0.013105724
00000000: 072e cf3c 8828 56bd 67d8 33bd 1b71 57bd
00000010: a336 0a3d 3bfc 2cbd f9c0 60bc cf5a 2d3d
00000020: fcdc 40bd b3a0 8d3b be57 2a3c c4d8 263d
00000030: cc35 5b3d 0bf7 223d bb17 29bd f602 163d
00000040: 9b97 793d 0d7f 30bd 6fd8 5e3c 93af 47bd
00000050: b247 65bd cbd6 0fbd dca0 8bbc 4807 7a3d
00000060: 4079 513c 9b3a 8fbc 9938 12bd ca00 53bd
00000070: 3aab 3dbc 4cec 76bc f014 e73c b97b 1bbd
00000080: f781 773c cc9b 3ebd 58d6 93bc 3965 ab3c
00000090: a3fe e1bc 7b0c 7fbd 701b b2bc 8d78 dabc
000000a0: 37bf 5e3d 113b 2bbd cac7 b9bc d370 b6bc
000000b0: 4ce5 b7bc af58 84bc 9a4c e63c 3760 513d
000000c0: 8bd5 30bd c87e f1bc b0aa 2abc f735 80bd
000000d0: 4d52 71bc 9852 2dbd d233 4a3d 5250 de3c
000000e0: 8119 86bb 7e73 d7bc 4119 3abd 6ee3 2e3d
000000f0: e428 2c3c ae3f 3e3d 70a3 263d 8fda 29bd
00000100: 6392 4eba 7b5f 4f3c b876 0f3d 983a 913c
00000110: e252 413d a5f9 a83c 82e6 3abc 78ad 24bd
00000120: 1b01 303d 0531 0f3c 5c0d 4a3b d303 d8bc
00000130: 4e22 44bd 2844 643d 431f be3c 72cd 1a3d
00000140: e6b1 333d 542e 69bd af76 e43c 8507 2cbd
00000150: eeab cb3b 7b59 1bbd 6873 1e3d 4459 e13c
00000160: 54db 92ba a7c7 9d3c c67c a13c 9e1d 4ebd
00000170: 3644 d13c fd1d c23c 5318 3a3d 7b9e 98bc
00000180: a2bd 163d eefa 62bd 86ac 783c 5242 e73a
00000190: f4e9 78bd c32a 22bc 165f 553d d565 793c
000001a0: e937 64bd ae47 093d 65c5 a43c a199 8a3c
000001b0: f9f5 b7bc 21f2 173d 9549 20bd 3ef3 463d
000001c0: 7757 063d 08ec e73c 67d9 f4bc 45a8 903c
000001d0: aad1 27bc 422c 5f3c 709d 62bd 966d cf3b
000001e0: 4b8b 5d3d 8afa 6d3c 0072 f0bc bfd0 3ebd
000001f0: 363d 503d 13be 593c 5ab4 103d fd0e a03c
00000200: c3e5 21bd 6ab5 29bd 38a2 19bd fedc aabc
00000210: b4b2 9039 53b4 f13c 3985 00bd 979d a13c
00000220: 8485 d13c c4ac 123d 1b88 5abd 7e04 fcbb
00000230: 961e 573d 8284 f3bc 1c71 6e3d 62a6 083d
00000240: 4c45 e93b ee07 ecbb 3c0c 30bc 4ee2 08bc
00000250: 3f0f 35bd 8693 1a3d ac7e 843c b430 6c3d
00000260: 3e8e c63b 845d 163d 8aa5 413b eab3 0e3c
00000270: cd5d 623d a12a c1bb db52 043d 8d8b 053d
00000280: 9c0a 023d 6de7 caba 2502 1cbb e0c4 04bb
00000290: 504d ce3c b25e 763d 360d 813d b6b5 7b3d
000002a0: cd9c b63c 00ea 38bd 05e0 6ebd cac5 383c
000002b0: 09ce d6bc 5a5f 4abd 1963 d6bc 0375 0dbc
000002c0: 8e45 82bc 72bf 6e3d 1721 0fbd ca4f 3c3d
000002d0: 2da9 2e3c d2a8 f6bc 1401 1c3d 5808 443d
000002e0: 0314 27bd 7734 9f3c 4bc8 483c 0a21 dd3c
000002f0: 0795 f53c 6753 c03c 95eb babc e0bd a03c
00000300: fcc3 b53c 0afd 0abd cf96 693d d95c 51bb
00000310: 6d4f 49bd 0837 92bc 74ca 07bd b06f 523d
00000320: 851e 95bc 14b0 39bd 8991 78bd cd47 77bd
00000330: 305e 80bc 6184 623d a372 91bc be8b 103d
00000340: c1f6 803d 35bf 9c3c 2b17 e1bc a085 003d
00000350: 379c fcbc 2c80 b2bb af29 f2bc 3dac 87bc
00000360: fdb3 d6bc 3b50 6f3c d3f9 71bd b836 60bb
00000370: 0b3d 9d3c c5f7 7b3d 264c 04bd 07f1 8a3c
00000380: 272c a7bc 3ca7 023d e9fa 29bd e599 ddbc
00000390: c20b f03c 16cb afbc db1e 593d 5dd6 92bb
000003a0: dc4c df3c df73 6c3b d2cd 373d 3a8a ae3c
000003b0: f23c 253d 9c3f d83a d59d e1bc 8d20 693c
000003c0: 5039 e0bc 2e05 1e3d 4326 abbc 7532 55bd
000003d0: c9bc 953c d1a8 dfbc 1c34 53bd c822 143d
000003e0: 8912 03bd 4fee 813d 5371 f03c b6be ae3c
000003f0: 88f8 973c b4b0 c7ba 4b6b 43bd 64b9 56bc

policy_head.bias f4 [16]
-0.045721028 -0.045710344 -0.015274544 -0.03647598 0.058301274 -0.036551535 -0.03699946 0.010819656
-0.006757917 0.029673664 -0.022034608 0.06307769 -0.02463391 -0.01047737 0.01734576 -0.024814583
00000000: f945 3bbd c53a 3bbd 1542 7abc d667 15bd
00000010: 51cd 6e3d 10b7 15bd bf8c 17bd ed44 313c
00000020: 8471 ddbb 2f16 f33c ec81 b4bc e02e 813d
00000030: 0ecd c9bc 46a9 2bbc b218 8e3c f447 cbbc

value_head.weight f4 [1, 256]
-0.05562345 0.05072999 0.03639259 -0.019932926 0.014609482 0.04742116 0.021608228 -0.04931907
-0.029425463 -0.058902442 -0.044644475 0.04862996 0.0107628675 -0.021841828 0.04956232 -0.033498008
0.06755703 -0.018799717 0.007893408 0.032643214 0.07397481 -0.042197037 -0.013297169 0.046930093
0.06877677 -0.06475323 0.06958232 -0.015798569 -0.06901309 -0.049061928 0.025688147 0.030926637
0.037889168 -0.025317848 0.045308635 -0.047252268 0.023557164 -0.013988744 -0.016377762 -0.029306846
0.03942797 -0.025081368 0.059778996 0.02488284 -0.015127804 0.04343378 0.015264927 0.015781226
0.020267071 0.05524214 -0.037075628 -0.036072962 0.0673529 0.050192904 0.025417352 -0.06485437
0.054563686 -0.07120448 0.027392676 0.06710742 -0.057478316 -0.030484764 -0.05743341 0.0652508
-0.057317343 0.06321827 -0.0110889925 0.037241008 -0.022352131 -0.060981832 0.027414221 -0.036092654
-0.051795986 0.027600743 -0.018444164 0.03953027 0.055968657 -0.03604251 -0.01623325 -0.055704437
-0.059584014 0.066274315 0.060825396 -0.07626502 0.044446934 0.031419013 -0.028228108 0.010558981
-0.01336158 0.028769204 0.035384644 0.022808634 -0.015742693 0.038146075 0.07038417 0.07498551
-0.031795394 -0.0304694 -0.02841723 0.06512812 0.06485826 0.06679286 0.072082415 -0.000992402
0.014741768 -0.071075805 -0.064798005 0.019030755 -0.07355856 -0.05890219 0.046241276 0.02423791
0.04290477 0.025117084 -0.057322066 0.06378634 0.019306822 -0.038655557 -0.029606704 -0.0151184155
0.025440168 0.018895045 0.041987352 0.048107624 -0.009370437 -0.032603208 -0.07415438 -0.055653945
0.027811378 -0.06514577 0.030128388 0.014317767 -0.06259089 0.031080546 -0.07432202 -0.03485762
-0.019821754 -0.034144584 0.056014176 -0.02231813 0.046738625 -0.026760817 -0.023568744 -0.048963793
-0.050079312 0.066652626 -0.057745147 -0.032922767 -0.027325002 0.05976355 -0.06645208 -0.03819676
0.05253842 0.032123834 -0.061620872 0.029836189 0.057180688 -0.04335043 -0.029842736 -0.055354644
-0.038419202 -0.054214995 0.0567105 0.022229696 -0.026044821 0.034634523 0.019329678 0.047444377
-0.0264109 0.038084086 0.06733477 0.010088049 0.011282898 0.068558566 -0.067883536 0.026496472
0.011433322 -0.06227049 0.019009288 0.06708063 0.05134845 -0.05983698 -0.06813089 -0.05159947
-0.070483334 -0.071370475 -0.019983906 -0.020863222 -0.0048402506 0.072615795 -0.07656454 0.06809064
0.015558322 -0.035991732 -0.04833633 0.014958074 -0.05939548 0.070956655 -0.04134932 -0.028289113
0.034999218 -0.059450876 -0.04716611 -0.032527167 -0.043006398 -0.014046876 -0.027310938 0.016180126
0.04982035 -0.028212706 0.052673765 0.031807683 0.07322043 0.014169626 -0.065445974 0.021651736
-0.0749736 0.035275184 0.031516206 0.068682164 -0.0036948964 0.04422288 -0.035803385 -0.031421773
-0.06904577 -0.015465916 -0.073281854 0.07488447 -0.016326187 0.020329112 0.074433394 0.032119427
-0.039140273 -0.061900437 0.032478973 -0.018542545 0.03279426 0.024615442 0.012343174 -0.052623846
-0.057895914 0.0770324 0.044906184 0.06497061 -0.011211592 -0.055457752 -0.07538161 -0.05941759
0.01926105 0.021682704 -0.0753963 0.04988696 -0.07259371 0.059570566 0.04099837 0.04470386
00000000: 6ad5 63bd 40ca 4f3d 6510 153d 604a a3bc
00000010: 9c5c 6f3c b13c 423d bd03 b13c cb02 4abd
00000020: ab0d f1bc b043 71bd 20dd 36bd 3530 473d
00000030: bd56 303c a2ed b2bc dc01 4b3d 3535 09bd
00000040: 575b 8a3d dd01 9abc 5a53 013c e4b4 053d
00000050: 1b80 973d cdd6 2cbd 5edc 59bc c539 403d
00000060: d6da 8c3d 579d 84bd 2d81 8e3d 006c 81bc
00000070: bc56 8dbd 29f5 48bd f36f d23c dc59 fd3c
00000080: ac31 1b3d 6067 cfbc 8c95 393d 988b 41bd
00000090: f4fa c03c 0b31 65bc a82a 86bc e914 f0bc
000000a0: 397f 213d 7177 cdbc d2da 743d 19d7 cb3c
000000b0: 9cda 77bc 9fe7 313d bf19 7a3c a147 813c
000000c0: 2107 a63c 9545 623d 9ddc 17bd 3ec1 13bd
000000d0: 51f0 893d 1397 4d3d 0d38 d03c 5ed2 84bd
000000e0: 2c7e 5f3d a8d3 91bd 9b66 e03c 9d6f 893d
000000f0: 626e 6bbd 2fbb f9bc 4c3f 6bbd 36a2 853d
00000100: 97c5 6abd 9578 813d 9bae 35bc 078a 183d
00000110: d11b b7bc 16c8 79bd ca93 e03c e4d5 13bd
00000120: 0728 54bd f41a e23c 3718 97bc 7eea 213d
00000130: 643f 653d 50a1 13bd 98fb 84bc 562a 64bd
00000140: 5e0e 74bd d4ba 873d 0d24 793d d630 9cbd
00000150: fd0d 363d 39b1 003d a23e e7bc 94ff 2c3c
00000160: 87ea 5abc 65ad eb3c 7def 103d 2cd9 ba3c
00000170: d2f6 80bc 0f3f 1c3d 9325 903d 0192 993d
00000180: e33b 02bd f79a f9bc 40cb e8bc e461 853d
00000190: 68d4 843d b2ca 883d f29f 933d 7c13 82ba
000001a0: 7587 713c 3190 91bd d1b4 84bd 63e6 9b3c
000001b0: dfa5 96bd 6c43 71bd 7e67 3d3d 958e c63c
000001c0: e9bc 2f3d 58c2 cd3c 8bca 6abd 6aa2 823d
000001d0: 5729 9e3c 4a55 1ebd c289 f2bc 3bb3 77bc
000001e0: e667 d03c c8c9 9a3c eefa 2b3d 800c 453d
000001f0: 7686 19bc f18a 05bd 40de 97bd 64f5 63bd
00000200: b0d4 e33c 256b 85bd cfcf f63c 1195 6a3c
00000210: a72f 80bd a19c fe3c 2536 98bd ddc6 0ebd
00000220: 3b61 a2bc 31db 0bbd 1f6f 653d 83d4 b6bc
00000230: 0071 3f3d 8039 dbbc 3d13 c1bc 428e 48bd
00000240: f71f 4dbd 2c81 883d 2d86 6cbd 06da 06bd
00000250: afd8 dfbc a0ca 743d 0718 88bd 3574 1cbd
00000260: 8732 573d 4894 033d 2b66 7cbd 066b f43c
00000270: 4c36 6a3d 3890 31bd c178 f4bc 8dbb 62bd
00000280: 745d 1dbd 8b10 5ebd 4549 683d 0d1b b63c
00000290: f35b d5bc eedc 0d3d 4659 9e3c 0955 423d
000002a0: ac5b d8bc 0ffe 1b3d d0e6 893d 5848 253c
000002b0: e7db 383c 6f68 8c3d 8606 8bbd 210f d93c
000002c0: d452 3b3c 570f 7fbd 5eb9 9b3c 9261 893d
000002d0: c152 523d 9f17 75bd 3588 8bbd f759 53bd
000002e0: 9159 90bd af2a 92bd 4ab5 a3bc 59e9 aabc
000002f0: f79a 9ebb 97b7 943d dfcd 9cbd 1b73 8b3d
00000300: 55e8 7e3c 116c 13bd 51fc 45bd b612 753c
00000310: ad48 73bd b951 913d e85d 29bd 92be e7bc
00000320: 575b 0f3d c382 73bd 4031 41bd 353b 05bd
00000330: 7a27 30bd de24 66bc 30bb dfbc 2f8c 843c
00000340: 6c10 4c3d 551e e7bc 72c0 573d c648 023d
00000350: 98f4 953d b827 683c 8a08 86bd fb5e b13c
00000360: c28b 99bd b67c 103d 2317 013d 3ca9 8c3d
00000370: 1326 72bb 0d23 353d 92a6 12bd 1eb4 00bd
00000380: de67 8dbd c164 7dbc cc14 96bd 075d 993d
00000390: 7fbe 85bc 3d89 a63c 8970 983d a98f 033d
000003a0: 8d51 20bd 508b 7dbd ac08 053d 89e6 97bc
000003b0: 4653 063d 53a6 c93c 063b 4a3c 1a8c 57bd
000003c0: 4424 6dbd 2ac3 9d3d 8cef 373d 500f 853d
000003d0: d3b0 37bc ab27 63bd ac61 9abd dc5f 73bd
000003e0: 59c9 9d3c ed9f b13c 6069 9abd 4556 4c3d
000003f0: 03ac 94bd 4400 743d e8ed 273d 651b 373d
